MNIST-rot/models/regularcnn_model.pth (torch_old, 149040 bytes, 44 tensors)

feats.0.weight f4 [16, 1, 3, 3]
000000 fd af 11 bf d1 c6 59 bf b9 95 b0 bf 45 ac b8 bf
       -0.5690916 -0.85068995 -1.3795692 -1.4427572
000010 73 a4 91 bf e0 25 04 bf 37 0e b8 3f d4 0e 9e 3f
       -1.1378311 -0.5162029 1.4379338 1.2348275
000020 bc 5c 58 3f 99 0b e6 3e 4f 75 6a bf 2a 24 ea be
       0.845165 0.44930723 -0.9158525 -0.45730716
000030 41 6a bf 3f e7 4a dd bd db 7b 14 c0 28 9b c5 3f
       1.4954301 -0.10805302 -2.3200595 1.5437975
000040 e2 1d f9 be 24 b6 80 bf d4 fd 4a bd 94 1d b0 3f
       -0.4865561 -1.0055585 -0.049558476 1.3759027
000050 de be 3e bf 3c 85 9c 3f d4 0d c8 3e 59 95 cc bf
       -0.7450999 1.222816 0.3907305 -1.5983077
000060 66 2b 8c bf 03 35 93 bf c4 25 d2 3f ba bc bd 3f
       -1.0950744 -1.1500553 1.6417775 1.482322
000070 fa 54 98 3e ef db da bf 7f 97 2e 40 60 84 f1 3e
       0.29752332 -1.7098368 2.7279966 0.47171307
000080 72 b4 7d bf dc 00 dc 3e ad 5d 59 3f 57 1c 03 3f
       -0.9910346 0.42969406 0.8490856 0.5121512
000090 ce 98 ed 3e 3a 5d 7c 3f 6b 39 9a bf ed 9b 1d c0
       0.46405643 0.9857975 -1.2048773 -2.462642
0000a0 0e b2 dd bc a7 46 75 3f 6c e4 8d be a8 ae de 3c
       -0.027062442 0.9581093 -0.27713335 0.027182892
0000b0 5a 96 bd 3f ed eb 01 bf 03 1f 93 bf e9 9f 24 40
       1.4811509 -0.5075062 -1.1493839 2.5722601
0000c0 b4 96 e4 3e 1e b4 a6 3f df bc 03 bf 2d ee 61 bf
       0.44646227 1.3023717 -0.5146007 -0.8825405
0000d0 2c a9 2a 3e 70 08 02 bf ba fa 37 bf 56 cd 3b bf
       0.16666096 -0.50794125 -0.71866953 -0.7336019
0000e0 6b 43 bf bd 4c 72 07 c0 05 bc 8d be d2 61 59 3f
       -0.09339031 -2.1163511 -0.2768251 0.84914887
0000f0 00 f2 12 c0 74 41 17 3f ee e0 9c 3f 23 62 e1 bf
       -2.2960205 0.5908425 1.2256143 -1.7608074
000100 e8 dc 34 3f ab 9d 81 bf be f5 07 be 25 14 26 40
       0.70649576 -1.0126241 -0.13277337 2.5949795
000110 4b c8 8f 3d 96 fd 95 be 36 b0 29 3f 36 05 d4 3e
       0.07020625 -0.29295033 0.662845 0.41410226
000120 83 b4 ab 3f 4d 9d 90 3f b9 69 5e bf 13 c4 b4 bf
       1.3414463 1.1298004 -0.8688007 -1.4122337
000130 86 41 47 bf 94 da ad bf 72 74 12 3f e1 77 c0 bf
       -0.77834356 -1.358233 0.5720893 -1.5036584
000140 05 93 6f bf b9 29 25 3f 60 15 50 3f e3 eb 90 3e
       -0.9358371 0.6451679 0.81282616 0.28304967
000150 66 e9 d4 bf 12 66 fc 3f 53 fe 46 bf e6 4b 84 bf
       -1.6633728 1.9718649 -0.7773182 -1.0335662
000160 f9 42 36 3f c5 6b 81 bf 77 34 3f c0 5c 10 ed be
       0.7119594 -1.0111014 -2.9875772 -0.46301544
000170 23 47 2b 3f 8f 1a 1d c0 81 64 a5 3e 6c 78 d3 3e
       0.6690542 -2.454746 0.3230324 0.41302812
000180 e4 00 1f bf 35 79 08 c0 39 54 29 bf df 68 16 bc
       -0.62110734 -2.132398 -0.6614414 -0.009180277
000190 73 d8 03 3f 59 f2 ad 3e 81 c3 44 bf 43 8b 31 be
       0.5150215 0.3397396 -0.76860815 -0.1733828
0001a0 48 9d 4d 3f 61 f1 a3 bf e2 2b 99 be 3b 7a 8c 3e
       0.8031812 -1.2808038 -0.29916292 0.27437004
0001b0 28 8e 3f 3f 18 72 c8 3f a9 35 f4 3f 7b 5c 8c bf
       0.7482629 1.5659819 1.9078876 -1.0965723
0001c0 62 72 c6 bf 35 d8 c5 3e 13 5f 0e be 23 db 92 bf
       -1.5503657 0.38641515 -0.13903455 -1.1473125
0001d0 02 d5 65 3d 36 4d be 3e a3 06 f6 bf 31 9c 8b bf
       0.056111343 0.37168282 -1.9220775 -1.0907041
0001e0 12 2d ce 3e cf cd 90 bd aa d8 a0 bf be 90 c7 3f
       0.4026876 -0.07070505 -1.2566121 1.5591047
0001f0 9e 43 b1 3f 58 11 0e 3f dc b4 60 3f 5c 38 27 3f
       1.384876 0.55495214 0.8777597 0.6532037
000200 da c6 11 bf 2b f2 09 40 e6 2f 7d bf de ad 3d bf
       -0.5694405 2.1554058 -0.9890121 -0.74093425
000210 b0 a4 51 3f 8d 4f 89 bf 6d 5d e0 bf 7d 62 79 bf
       0.8189192 -1.0727402 -1.7528511 -0.97415906
000220 a8 76 d8 bf ab f1 82 3f 9f e1 4d be 01 d5 0f bf
       -1.6911211 1.0230001 -0.20105599 -0.56184393
000230 91 7c ed 3f 98 ba 85 bf 0d 61 7a 3f e1 92 55 3f
       1.855364 -1.0447569 0.9780434 0.83427244

feats.0.bias f4 [16]
000000 63 b1 bd bf af 11 4e 3f f5 67 11 bf 64 b4 23 3f
       -1.4819759 0.80495733 -0.5679925 0.6394713
000010 3f cd f0 bd 36 73 a0 3f a1 50 9a 3f b2 96 1b c0
       -0.117578976 1.253516 1.2055856 -2.4310727
000020 1d a7 d0 bf 7d 3b a6 3f 39 b0 30 bc 37 70 84 3e
       -1.6300999 1.2986904 -0.010784202 0.25866863
000030 66 4c 95 3f 64 af b3 3f 80 bd 60 be 5b 15 ff 3f
       1.166394 1.40379 -0.21947289 1.9928392

feats.1.weight f4 [16]
000000 a7 5a e5 3f ef 59 06 40 6a 84 fd 3f e5 9d 96 3f
       1.791829 2.099239 1.9806035 1.1766936
000010 64 4f 2f 3f 6c cf 9d 3f 92 4d 19 40 77 73 13 40
       0.68480515 1.2328925 2.3953595 2.3039224
000020 9f ba 42 40 28 b6 30 3f 83 78 41 40 fc 70 92 3e
       3.0426404 0.6902795 3.0229805 0.28601825
000030 ab 5a c0 3f 2f fb b0 3f ad a1 08 40 7b 10 93 3f
       1.502767 1.3826655 2.134868 1.1489404

feats.1.bias f4 [16]
000000 a0 e0 05 3f 77 12 5d 3e 6d 88 55 3f e4 19 92 bf
       0.52295876 0.21589075 0.83411294 -1.1414151
000010 bd 95 73 3f b9 75 43 bf 7e c8 2c 3f a3 e9 82 be
       0.9515036 -0.76351506 0.67493427 -0.25568876
000020 f1 45 b2 be fb 69 44 bf 4e 86 fe 3e 38 50 8f bf
       -0.34818986 -0.76724213 0.4971184 -1.1196356
000030 19 f5 72 3f ae 80 08 bf a1 6b 80 be d1 68 c3 be
       0.9490524 -0.5332135 -0.25082114 -0.38165906

feats.1.running_mean f4 [16]
000000 37 41 e5 bf 00 72 11 3f 68 cd 11 bf 3d a9 94 3f
       -1.7910527 0.56814575 -0.5695405 1.1614147
000010 b4 5d ff bd cf 9b af 3f 4b 9d 3e 3f de 51 11 c0
       -0.12469044 1.3719424 0.7445876 -2.2706218
000020 b7 85 07 c0 25 dd a4 3f 5c c2 83 bf 1f 12 3a 3e
       -2.1175363 1.2879988 -1.0293689 0.18170975
000030 06 a4 a1 3f 57 90 b2 3f 30 3b 9a be f5 81 01 40
       1.2628181 1.3950299 -0.3012328 2.023557

feats.1.running_var f4 [16]
000000 52 7a 83 3f 09 d2 89 3f c2 12 31 3e 6d 8b f0 3f
       1.0271704 1.0767223 0.17292312 1.8792549
000010 c7 f1 ad 3e f9 56 8c 3e 91 af cc 3f 13 84 ee 3e
       0.33973524 0.27410105 1.5991079 0.4658514
000020 1f 52 b3 3f af 5d 66 3e 57 55 8c 40 b5 89 8c 3e
       1.4009436 0.22496675 4.3854175 0.27448812
000030 e4 e3 21 3f 5f ee 54 3f 7c 13 69 3f 38 a9 28 3f
       0.6323836 0.83176225 0.91045356 0.6588321

feats.3.weight f4 [16, 16, 3, 3]
000000 51 15 ba bf 2c 1b 70 be 4e 72 17 3e 89 6a ce 3d
       -1.4537755 -0.23447865 0.14789698 0.10078914
000010 2f 17 7d 3f 4f 36 bc 3f 01 80 28 be 4d 8e 2e be
       0.988635 1.4704074 -0.1645508 -0.17046471
000020 c6 9a 25 bf fb ce 78 3e 20 6a 12 bf d3 61 df bf
       -0.6468929 0.24297707 -0.57193184 -1.7451729
000030 04 4d 3c c0 a2 94 9d bf c8 f0 7d 3e 83 a4 b3 bf
       -2.9422007 -1.2310984 0.24798882 -1.403458
000040 17 24 4d bf ad fa 57 3f 01 0c 73 3f d8 20 4b bf
       -0.80133194 0.84366876 0.9494019 -0.7934699
000050 1f 27 98 3e 68 83 bc 3f 66 06 a8 bf 3f 02 81 3d
       0.29717347 1.4727602 -1.3126953 0.062992565
000060 36 b5 78 3f a6 39 c2 bf 4f e8 ac 3f d2 59 02 be
       0.97151506 -1.5173843 1.3508395 -0.12729576
000070 f4 0e 29 bf 2d 34 e2 be 10 65 d0 bf f7 6b 20 c0
       -0.6603844 -0.44180432 -1.6280842 -2.5065897
000080 8f 93 2d bf de fc 3d c0 7c ef bc bf a1 3d b0 3e
       -0.6780328 -2.9685588 -1.4760585 0.3442202
000090 e2 9c 46 be 90 f2 96 bf 95 01 30 bf 3b 98 80 3f
       -0.19395784 -1.1792774 -0.68752414 1.0046457
0000a0 47 7e a3 3d a4 a6 0c be 3f ba 36 3f 1d 6b c6 3e
       0.0798307 -0.13735443 0.7137794 0.38753596
0000b0 2c 08 05 be 38 75 c5 bf ff aa 5a bf a3 82 7f bf
       -0.12991399 -1.5426397 -0.8541717 -0.9980871
0000c0 ed 30 0e bf a7 a6 e7 bf 0c 38 61 bf dd 7b 65 bd
       -0.55543405 -1.8097733 -0.87976146 -0.05602633
0000d0 a5 87 d5 bf f2 ae 84 3e 45 48 b2 bf 05 ca 75 be
       -1.668202 0.25914723 -1.3928305 -0.24002846
0000e0 70 8b 0e 3f 9c ca a1 3f 88 92 cf 3f ab 1c f7 bd
       0.55681515 1.2639956 1.6216593 -0.12066015
0000f0 99 dc 0f 40 b8 fc 89 3f 88 d1 25 3f f2 32 09 c0
       2.2478392 1.0780249 0.64772844 -2.1437345
000100 a1 ed 0e c0 b9 38 46 c0 d1 94 f4 bf c9 9d 5d bd
       -2.2332537 -3.097212 -1.9107915 -0.054105554
000110 6e 75 9c be 31 c1 2b bf a7 8b 80 3f ef e9 19 3f
       -0.30558342 -0.6709166 1.0042619 0.6012258
000120 b9 e5 0f 40 dd 41 a0 3e 85 39 11 bf 59 a8 67 3f
       2.2483962 0.3130025 -0.5672839 0.90491253
000130 fb 20 8c 3f fa 01 78 bf ba 8a 9e 3e dd 80 90 3f
       1.0947565 -0.96878016 0.30965215 1.1289326
000140 c3 8f 04 c0 02 23 bb 3f a8 ee 0f c0 a7 3f fe bf
       -2.0712745 1.4620059 -2.2489414 -1.9863175
000150 8a 8e 1f bf a4 f0 fb bf 49 15 d8 be ae f3 e2 bf
       -0.6232687 -1.9682813 -0.4220374 -1.7730615
000160 e6 59 98 bf 34 8d 64 3f 25 24 21 3f 86 08 90 3f
       -1.1902435 0.8927796 0.6294578 1.1252601
000170 02 ab a8 3f 64 cc 29 bf 8d 3a 8c bf 92 c8 89 bf
       1.3177187 -0.663275 -1.0955368 -1.0764334
000180 d9 9d 73 3e 83 83 83 3e 9a 4e 02 bf 7e bb 12 bf
       0.23790683 0.25686273 -0.50901186 -0.5731734
000190 02 fa 94 be d1 57 a7 be d6 03 9a be 2e 16 41 be
       -0.2909699 -0.32684186 -0.30081052 -0.18856117
0001a0 fc ba 92 3e e0 e2 7c bf 19 cb 05 bc a7 34 8b be
       0.28658283 -0.98783684 -0.008166098 -0.27188608
0001b0 b7 05 f0 3c af 85 6d bf d5 77 84 be 37 18 68 3e
       0.0292996 -0.9278211 -0.25872675 0.22665487
0001c0 b5 08 89 bf 2c 1e 24 c0 bf aa 0c c0 4f 2f 31 3f
       -1.0705782 -2.5643415 -2.1979215 0.6921281
0001d0 e7 e3 6b 3f 60 e8 0e c0 37 e3 f4 bf 28 7b ca bf
       0.92144626 -2.232933 -1.913184 -1.5818834
0001e0 b8 2b b1 bf e0 04 ef 3d 6d 5c 8e 3f f8 4a ec bf
       -1.3841467 0.11670852 1.1121956 -1.8460379
0001f0 2d 4d 8a be 22 cd 25 3e 7e 45 7c 3e 3e 75 2f bf
       -0.27012005 0.16191533 0.24635884 -0.6853827
000200 63 1c 01 c0 c7 8a a4 be ad ea 2b bd 6e 20 eb bf
       -2.0173576 -0.3213713 -0.04197185 -1.8369272
000210 71 9e c9 bf dd 72 e0 3e 76 e5 9c 3f 12 a9 08 c0
       -1.5751477 0.43837634 1.2257526 -2.1353192
000220 46 c0 44 c0 1e 63 88 bf ed ad 42 bf d1 c2 47 3e
       -3.0742354 -1.0655248 -0.7604664 0.1950791
000230 9e b3 25 be 09 36 95 3f aa cc 0b 3f 47 72 32 bc
       -0.161818 1.1657115 0.5460917 -0.010891504
000240 ea 0c 1c c0 dd 17 2d bf 27 7c 31 be ff 8c 2d c0
       -2.4382882 -0.6761454 -0.17332517 -2.7117307
000250 5a 3e 9f bf 36 74 43 bf 49 e9 89 3e d0 a8 00 be
       -1.2440903 -0.763492 0.26935795 -0.12564397
000260 5a 32 6b 3e f4 e4 94 be 7d 3f b9 3d 01 39 c5 3e
       0.22968426 -0.29080927 0.090453126 0.38520053
000270 d3 36 47 bf 19 07 14 3f 3e ba e8 3f 7e fe 51 bf
       -0.7781803 0.5782333 1.8181837 -0.8202895
000280 4e 75 4a c0 d8 4f 4a 3f 1f 94 58 3e 91 91 73 3e
       -3.1634097 0.7902808 0.21150254 0.23785998
000290 01 f8 f4 3e 1a 1b 9b be 1f 57 8a be 5a c5 09 40
       0.47845462 -0.30294114 -0.27019593 2.1526704
0002a0 c4 49 1e bf dc 42 82 c0 42 61 a2 be 73 f2 27 bf
       -0.6183131 -4.0706615 -0.31714827 -0.65604323
0002b0 63 8e 5c 3e a9 9f 85 3e d2 18 80 bf 45 7b ab bf
       0.21538691 0.26098374 -1.0007575 -1.3396994
0002c0 b6 c3 8f bf 47 df 5d bf 5e 56 37 c0 5f ad 11 c0
       -1.1231601 -0.8666882 -2.8646464 -2.2762067
0002d0 e3 53 fd bf 12 62 58 3e 25 b9 53 be 7a ff ae bf
       -1.9791225 0.21131161 -0.20676096 -1.3671715
0002e0 6a b0 1c 40 b4 dd ab 3f ff 3b f8 bf 47 0e 20 bf
       2.4482675 1.3427033 -1.9393309 -0.62521785
0002f0 c1 70 dc 3f da 3b db bd 6e c9 80 3e 50 2a 74 bf
       1.722191 -0.10704775 0.2515368 -0.95377064
000300 22 b6 eb 3e f3 4d f5 be 14 93 69 bf dc 8a 0a bf
       0.46037394 -0.47911033 -0.9124005 -0.5411813
000310 5a e0 66 3f 2f e9 24 3f cc 84 5b be 7f 05 5b 3f
       0.90186083 0.6441831 -0.21437377 0.8555526
000320 ee 42 ff be b2 92 85 bf 45 7a 83 3f bd c5 d5 be
       -0.4985575 -1.0435393 1.0271689 -0.41752425
000330 4f fe 25 c0 1a 5e aa be b6 61 39 be d3 63 20 bf
       -2.5936468 -0.3327492 -0.1810368 -0.6265232
000340 35 d5 a3 3f 4e 9b 2c 3f 31 c1 3b c0 dd 45 96 3e
       1.2799441 0.67424476 -2.9336665 0.29350176
000350 3f 5c 1e 3f bb c5 36 c0 5c 9f b5 3c 3f 69 42 bf
       0.61859506 -2.8558185 0.022170715 -0.7594184
000360 8e 0b 1f bf d0 0c d7 bf 81 e3 41 bf 0a 58 9f 3d
       -0.62127006 -1.6800785 -0.7573777 0.07780464
000370 d3 10 71 bf f8 71 73 be 88 1f 27 c0 47 2c 40 c0
       -0.94166297 -0.23773944 -2.6112995 -3.0027025
000380 cb 1f 09 c0 f1 80 b3 bf f7 ba 30 3f c8 fa b3 bd
       -2.1425655 -1.4023725 0.69035286 -0.08788067
000390 a4 15 0c be 04 59 b3 3e bd fd 33 3d 81 4a b1 be
       -0.1368013 0.3502885 0.043943156 -0.34627154
0003a0 6d f2 16 bf 45 af 92 bf ab 63 39 be 7f fa bb be
       -0.5896366 -1.1459738 -0.18104427 -0.3671455
0003b0 e4 a3 98 bf b7 8f f2 bd 14 48 e0 3f 13 21 bb 3e
       -1.1925015 -0.11843818 1.7521996 0.3654867
0003c0 12 dc 44 bf bc bf c9 3e 3a 15 c3 bf 7d 4d 07 be
       -0.768983 0.39404094 -1.5240853 -0.13213153
0003d0 b1 4e 65 bd 52 8b 8d bd ae 32 80 be 50 8f 30 3f
       -0.05598325 -0.06911339 -0.25038666 0.6896868
0003e0 86 12 df 3e c0 56 64 bf 2c 9d 27 bf 04 ba f6 bd
       0.4356882 -0.8919487 -0.654742 -0.120471984
0003f0 a4 be 8f be 7f 71 f1 bc d2 68 de bf e2 b1 33 3f
       -0.28075135 -0.029473064 -1.7375739 0.701933

feats.3.bias f4 [16]
000000 9e 29 4b bf d9 4b 4b be 15 db 7a bf 33 d1 32 3d
       -0.7936038 -0.19853152 -0.9799054 0.04365654
000010 bd 71 f4 3e 2d d2 66 3e fd 72 c3 3e 94 99 2b 3f
       0.47743025 0.22541113 0.38173667 0.67031217
000020 d0 f3 ef bd be d2 c9 bf 74 6e 1d 3e 7a 62 a0 bf
       -0.117164254 -1.5767438 0.15374166 -1.2530053
000030 1e 56 46 bf 8b b6 75 bf 45 d8 be 3e ae 58 c7 bf
       -0.77475154 -0.95981663 0.37274376 -1.5573938

feats.5.weight f4 [16]
000000 1a 83 0e 40 d9 72 ff 3f 18 a6 eb 3f a8 0b 46 40
       2.2267518 1.9956924 1.8410063 3.0944614
000010 d1 af c9 3f 2e dd ea 3f ef 4b 14 40 dd 77 b3 3f
       1.575678 1.8348749 2.3171346 1.4020954
000020 ec 32 23 40 b4 cf bb 3f 00 89 e8 3f d2 ea bb 3f
       2.549983 1.4672761 1.8166809 1.4681036
000030 64 52 db 3f 09 d2 9b 3f 0b 76 90 3f 9d 30 81 3f
       1.7134519 1.2173473 1.1286024 1.0092961

feats.5.bias f4 [16]
000000 67 75 b0 3e e9 a6 27 bf 65 dd 14 bf ed a2 01 3f
       0.3446457 -0.6548906 -0.5815032 0.5063923
000010 c4 71 02 bf c9 27 81 bf 9a bc f3 be 90 e8 76 be
       -0.5095484 -1.0090266 -0.4760483 -0.24112153
000020 34 c4 a1 3c 21 aa be be 2f 9f 45 3d cd d2 81 3e
       0.019746877 -0.37239173 0.048247512 0.2535614
000030 75 1b 1c 3e 7e 55 77 bf 72 ec ae be e3 97 f9 be
       0.15244849 -0.96614826 -0.34164768 -0.48748693

feats.5.running_mean f4 [16]
000000 f5 82 d9 c0 c0 4b c1 c1 2c b0 08 c2 e2 3c f2 bf
       -6.797236 -24.161987 -34.172043 -1.892483
000010 2a b5 3b c1 c3 eb 33 bf 95 94 2e c1 5b 06 a3 40
       -11.7317295 -0.7028162 -10.911275 5.094526
000020 b9 04 3c 41 e6 10 1d c0 40 ef a1 c1 58 31 1a c2
       11.751153 -2.4541564 -20.241821 -38.548187
000030 6e 4a 3c 40 c1 86 9d 41 7e a0 1c be c3 ab c6 c1
       2.9420428 19.690798 -0.15295598 -24.833868

feats.5.running_var f4 [16]
000000 bd bc 37 44 ea 3f c8 43 7b 97 81 43 5e 03 15 44
       734.94904 400.49933 259.18344 596.0526
000010 2b b6 69 44 61 bf fe 43 de ec 0a 44 2d f8 0a 44
       934.8464 509.49515 555.70105 555.87775
000020 23 78 22 44 2e db 5e 44 ee 91 c2 43 e3 aa bd 43
       649.87714 891.4247 389.14008 379.33505
000030 ec 4b 4b 44 5b c3 bf 43 9d 5f 40 44 d4 81 a4 43
       813.1863 383.5262 769.49396 329.01428

feats.7.weight f4 [24, 16, 3, 3]
000000 a3 3b 71 bf dc 2e 1e 3f 1c 0b 20 be 5c bb 58 bf
       -0.94231623 0.6179025 -0.15629238 -0.8466089
000010 41 65 93 be a6 40 c5 be 9b c3 d6 3e 3f 8f 43 3f
       -0.28788188 -0.38525885 0.4194611 0.7639045
000020 43 c4 f8 3f 1b 93 28 c0 5e c7 84 3f d3 4c 3d bf
       1.9434894 -2.6339786 1.0373342 -0.7394535
000030 74 47 0a c0 72 08 25 bf 9c 4f da bf da ac c5 be
       -2.1606112 -0.6446601 -1.7055545 -0.38608438
000040 b6 a0 57 bf c8 95 28 3e 73 aa fa be 8d 25 8d 3d
       -0.842296 0.16463387 -0.48958167 0.06891928
000050 a9 53 e2 3f 97 68 0d c0 a1 98 d7 3f a0 f6 59 3f
       1.7681781 -2.2095087 1.6843454 0.85141945
000060 2c ec 67 bf b3 88 cc 3e df e8 66 bf 93 d8 0e c0
       -0.90594745 0.39948043 -0.90199083 -2.2319686
000070 b9 29 b5 bf 53 29 84 bf 2c 38 e0 bf a3 19 c3 3e
       -1.4153358 -1.0325111 -1.7517142 0.38105497
000080 dd bc 81 3f 88 57 9f bf e2 90 a8 bf 3a 1f 71 3e
       1.0135761 -1.2448587 -1.3169215 0.23547068
000090 1c d5 29 3f 20 09 8f 3f ef bd 14 3f 3d 29 b9 be
       0.66340804 1.117466 0.58102316 -0.36164275
0000a0 f3 56 dc bd 11 bc cc be 7c 1a 20 3f 5f 61 94 3f
       -0.10758772 -0.39987233 0.6254041 1.1592215
0000b0 e9 e6 74 c0 7d 4a 82 be bc 12 75 3f 87 fd f7 3f
       -3.8265936 -0.25447455 0.9573171 1.9374245
0000c0 a7 cc 6a 3f f1 ea 3e bf dc 15 89 3e 43 0d a0 be
       0.91718525 -0.7457724 0.2677449 -0.31260118
0000d0 76 df b0 be 06 6e 6d be 02 ca a5 be fa 72 de bf
       -0.34545487 -0.23186502 -0.32380682 -1.7378838
0000e0 67 f0 88 bf 41 9c 94 bd 46 1b 81 bf 65 8c 5e 3f
       -1.0698365 -0.072563656 -1.0086448 0.86932975
0000f0 eb 68 d7 3f 68 9f be 3f 42 6b 6d be 98 19 1a c0
       1.6828893 1.4892397 -0.23185447 -2.407812
000100 47 cb af bf 3c 56 18 c0 b7 5f d1 bf 88 70 8f bf
       -1.373391 -2.3802633 -1.6357335 -1.1206217
000110 16 49 a5 bf 7b c5 0c bf 8b e0 d0 bd cd 7f 56 3e
       -1.2912929 -0.5498883 -0.10199078 0.2094719
000120 c2 5c 74 3f 8e d5 8f 3e 90 cf 73 bf ff 24 92 3e
       0.9545404 0.28092617 -0.9523859 0.2854385
000130 bd 76 0e be 56 3b 00 c0 3c 3a f0 bd 3d c8 18 3f
       -0.13912483 -2.0036216 -0.11729857 0.5968054
000140 52 2f 8c bf 45 d0 aa 3e 9c fd 09 3f 4d 79 24 c0
       -1.0951941 0.33362022 0.539026 -2.5699036
000150 29 dc 8b be 1a bd 14 bd 84 49 de bf f9 19 48 3f
       -0.27316406 -0.036313154 -1.7366185 0.7816463
000160 60 32 2f bf 25 e4 7e bf 4f fb 5d c0 b9 26 29 3f
       -0.6843624 -0.9956687 -3.4684637 0.6607471
000170 14 54 81 3d 58 9d d7 be 0c 91 32 3e e3 99 b0 bf
       0.06314865 -0.4211223 0.17438143 -1.3796962
000180 a1 87 13 3e 89 53 76 bf a5 b4 bf 3f 9d 68 73 3d
       0.14407207 -0.96221215 1.4977003 0.05942594
000190 53 90 60 3f ac 90 3a be 0c bf 82 bf c2 fb 42 3f
       0.8772022 -0.1821925 -1.0214553 0.761654
0001a0 c9 c8 b8 3e ff c9 21 3e d2 82 71 3f a8 bc e3 3f
       0.36090687 0.15799712 0.9434024 1.7791948
0001b0 d7 26 45 be 50 18 ec be f5 8e 13 bf 77 d1 2b c0
       -0.19253097 -0.461123 -0.5764001 -2.6846597
0001c0 14 71 84 bf f1 8f 0c c0 35 18 10 c0 40 47 66 bf
       -1.0347009 -2.1962855 -2.2514775 -0.8995247
0001d0 7d db aa bf b9 e7 e4 bf f0 91 01 c0 8e 45 71 bf
       -1.3348233 -1.7883216 -2.0245323 -0.9424676
0001e0 4c 2e 5f bd 23 23 67 bf 13 82 08 bf 8a ff a2 3f
       -0.05448751 -0.9028799 -0.5332348 1.2734234
0001f0 fd a7 12 3f cd 8f be 3f b1 23 41 bf d9 01 0c bf
       0.5728758 1.4887635 -0.75445086 -0.5469032
000200 cd 07 21 3f 92 1c ca bf 82 96 a4 3f 25 fc 1b 3f
       0.6290253 -1.5789969 1.2858431 0.6093162
000210 93 17 9d 3f c9 fe c3 3f a3 54 80 3f 35 12 1c 3f
       1.2272819 1.5312129 1.0025829 0.6096528
000220 24 7f 6b be 06 bd ab bf cd 5c d5 bd cf f7 1e bf
       -0.22997719 -1.341706 -0.10418091 -0.62096876
000230 b1 5c b6 bf 7c bd e0 3f f7 d1 54 3e 05 8b 21 bf
       -1.4247037 1.7557826 0.2078322 -0.6310275
000240 0e d4 0a 40 f9 e1 02 bf 6b 7e f3 3e 4e 69 06 40
       2.1691928 -0.51126057 0.47557387 2.1001773
000250 dc 6b a6 3f 2a 8b 0f 3d 17 01 e3 3f 79 92 ad bd
       1.3001666 0.035044827 1.7734708 -0.08475203
000260 45 93 21 bf aa 35 35 bf e9 62 8c bd 1a ae 04 be
       -0.6311534 -0.7078501 -0.06854803 -0.1295704
000270 42 71 ce bf 69 74 fd bf a3 32 46 c0 8d c5 d0 3d
       -1.6128314 -1.980115 -3.0968406 0.1019393
000280 6a e3 3b 3f 81 b1 4c be 58 d9 c2 3e 0e 96 88 3f
       0.7339388 -0.19989587 0.38056445 1.0670793
000290 39 1e 19 3f 5c f1 db be 13 92 99 3f b1 db f7 3f
       0.5981174 -0.4295758 1.1997703 1.936392
0002a0 36 0e 94 bf b8 4e 3f be 6c 6c 5b 3e 79 5b 58 3f
       -1.1566837 -0.18682373 0.21428078 0.84514576
0002b0 f3 02 49 3e fc 48 d9 3e 50 2c 57 3e 47 dc 53 bf
       0.19630031 0.42438495 0.21012998 -0.8275799
0002c0 12 ae 30 3f d6 8b 97 bf ab d4 06 bf 1c a5 52 3f
       0.6901561 -1.183955 -0.52668256 0.82283187
0002d0 f5 a0 15 3f a7 fe a4 bf ee 94 c6 be 43 5f b4 bc
       0.58448726 -1.2890214 -0.387855 -0.02201808
0002e0 46 14 0b bf 40 e6 a3 3d d4 91 f9 be e8 20 82 3e
       -0.5432781 0.08002901 -0.4874407 0.2541573
0002f0 d5 ea 05 bf f1 3e 29 3f d9 97 64 3e c6 4b f7 be
       -0.5231145 0.66111666 0.2232355 -0.48299998
000300 6e 11 5b 3e 62 82 50 3e 90 0f e6 3d 57 24 08 bf
       0.21393368 0.20362237 0.11233437 -0.5318045
000310 1a bf 2c c0 1f 9e d6 3e 09 6e e3 bf 0a 61 9f bf
       -2.699164 0.41917512 -1.7767955 -1.2451489
000320 74 fb 1a bf e1 75 9a c0 4d f8 e0 bf 7c bb ea bf
       -0.60539937 -4.8268895 -1.7575775 -1.8338466
000330 61 b5 1d c0 f4 a9 83 bf 25 b0 3a c0 c3 ea c7 3e
       -2.4641955 -1.028624 -2.917001 0.39046296
000340 56 02 56 be 65 fc f2 3e 0c 09 99 bf 69 6c 1c bf
       -0.20899329 0.47458187 -1.1955886 -0.6110292
000350 5e 2c ac bf 26 63 b5 bf ad e1 e8 3f 7a fa 50 3f
       -1.345104 -1.4170883 1.8193871 0.81632197
000360 7b 20 9e bf 9c 8d 9c 3a 00 0a bb 3e 35 ea 06 c0
       -1.2353662 0.0011944058 0.36531067 -2.1080449
000370 fe 27 8a 3f 46 e2 a8 3e 5e 22 e0 3f 10 6f ea 3f
       1.0793455 0.32985133 1.7510488 1.8315144
000380 e1 de de 3f df a1 67 be f1 31 6d c0 9b 26 dc bf
       1.7411767 -0.22620343 -3.7061732 -1.7199281
000390 5b 6e 8d bf 4a ee 8f bf 0d c0 df bf d1 4a 0e c0
       -1.1049303 -1.1244595 -1.7480484 -2.2233164
0003a0 b2 d1 b5 be 9b cf c6 bf bc 16 9e be 61 ab 30 3f
       -0.35511547 -1.5532106 -0.3087672 0.69011503
0003b0 f0 29 1e 3e a8 2c 22 3f 4c 3b 3c 3e 4f eb 61 be
       0.15445685 0.6334939 0.18381995 -0.2206242
0003c0 9a b1 cb 3e cc 88 92 be 63 ce 6f 3f ba 7e a4 3c
       0.39783937 -0.28619993 0.93674296 0.02007996
0003d0 dc fe 25 bf 14 cd 90 bf a5 8d 55 3e 26 8b 03 3e
       -0.6484201 -1.1312585 0.20854814 0.1284605
0003e0 b2 47 ad bf 53 cb 27 c0 ad 38 37 bf 17 7e 3d 3e
       -1.3537505 -2.621785 -0.71570855 0.1850513
0003f0 24 74 b7 3e 45 d8 64 3e 9f 23 9e 3f 78 2f 2b bf
       0.35830796 0.22348125 1.2354621 -0.66869307

feats.7.bias f4 [24]
000000 23 31 47 3e 54 6e 0a be 8b b0 4f 3f 2a f9 0d 3f
       0.19452338 -0.1351865 0.8112876 0.5545832
000010 bb af 4c bf 6b ed af 3f 2d e1 f1 be 23 29 26 bd
       -0.79955643 1.3744329 -0.47242108 -0.040566575
000020 f1 64 5a 3f 10 09 de 3e 9e 37 9b 3e 68 65 64 bf
       0.85310274 0.4336629 0.3031587 -0.89217234
000030 f1 9c 4c 3f c4 be ac 3e f3 14 0f 3f 8e 7b 17 be
       0.79926974 0.33739293 0.5589134 -0.14793226
000040 59 b4 3c 3f 79 78 2a be ae cf 84 bf 48 49 43 bf
       0.7371269 -0.16647519 -1.0375879 -0.76283693
000050 d1 c8 c7 3e 93 a4 32 3f d2 f4 50 be aa 77 37 3e
       0.39020398 0.6978237 -0.20405892 0.17916742

feats.8.weight f4 [24]
000000 e1 56 f3 3f d5 7c 16 40 fc 15 11 40 d8 3d e8 3f
       1.9010888 2.3513691 2.2669668 1.8143873
000010 7e 88 d4 3f 90 77 17 40 47 d3 c1 3f 45 ac c2 3f
       1.6604154 2.3666725 1.5142602 1.5208822
000020 09 06 bb 3f b2 6c be 3f 97 fa fb 3f fa 01 ed 3f
       1.4611217 1.4876921 1.9685849 1.8516228
000030 4f 07 81 3f f6 99 e5 3f db 84 c9 3f 2a dc f1 3f
       1.0080355 1.793761 1.5743669 1.8895314
000040 35 87 b8 3f 5e 03 0a 40 23 6a bd 3f 00 d8 12 40
       1.4416262 2.1564555 1.4798015 2.2944336
000050 63 03 e2 3f 36 e4 dc 3f 01 3a d9 3f a8 4c 0c 40
       1.7657284 1.7257144 1.6970826 2.1921787

feats.8.bias f4 [24]
000000 e5 9f 1c be c4 1a f4 3d 52 28 84 be 8e 27 2f bf
       -0.1529537 0.11919168 -0.25812012 -0.6841973
000010 7b b1 8a bf 5d 7d cb be 72 40 86 3e 26 64 81 bf
       -1.0835413 -0.39744082 0.26221043 -1.0108688
000020 e2 b3 95 bd a7 5a 3b bf 75 ac 19 bf ff 53 5f bf
       -0.073097005 -0.731852 -0.60028774 -0.8723754
000030 40 41 34 bf d1 5b 2d be 0d 32 bd bf df 88 9b be
       -0.70412064 -0.16929556 -1.4780899 -0.30377862
000040 00 06 a0 be f6 c6 d3 be fc d4 0d bf f9 00 1c 3f
       -0.31254578 -0.41362733 -0.55403113 0.60938984
000050 d5 51 85 be 1c ad 80 be c6 3d 80 bf 55 3f 87 3c
       -0.26038995 -0.25132072 -1.0018852 0.016509691

feats.8.running_mean f4 [24]
000000 25 59 ca c1 e7 76 1c c1 52 a9 26 c1 e8 97 eb c0
       -25.293528 -9.779029 -10.416338 -7.3622932
000010 82 b2 4d c1 c5 15 a6 c0 f5 1a 3e c1 2b 36 d3 c1
       -12.856081 -5.1901574 -11.881581 -26.40145
000020 4d 42 b7 c0 69 7a e8 40 ae e0 96 c1 f3 b8 b8 c1
       -5.7268434 7.2649426 -18.859707 -23.090307
000030 bd 60 0e c1 3b 79 1b c2 75 ff 72 3e 99 aa c0 c1
       -8.898618 -38.86839 0.23730262 -24.0833
000040 3e 89 60 c1 ea 18 63 c1 82 a2 9b c1 07 b4 ea c0
       -14.033506 -14.193583 -19.45435 -7.334476
000050 53 30 31 c1 3a 56 3b c1 8c 3f 6f 40 b5 be a8 c1
       -11.074298 -11.708551 3.7382536 -21.093119

feats.8.running_var f4 [24]
000000 ff b2 1b 44 4a 5a 50 44 34 94 18 44 e4 c3 16 44
       622.7968 833.41077 610.3157 603.0608
000010 30 10 aa 43 a5 de 25 44 59 cf 1c 44 b1 12 a6 43
       340.12646 663.4788 627.2398 332.14603
000020 2f a7 0f 44 b6 c9 a4 43 56 6b b2 43 4e f0 cb 43
       574.61224 329.57587 356.83856 407.87738
000030 02 52 27 44 28 fb a2 44 74 57 af 43 a8 36 88 44
       669.2814 1303.8486 350.68323 1089.708
000040 41 41 0d 44 37 56 03 44 5e c2 d6 43 57 d4 17 44
       565.0196 525.3471 429.5185 607.3178
000050 c3 47 ac 43 92 b6 0b 44 b0 21 0a 44 ca fe 95 44
       344.56064 558.85266 552.52637 1199.9622

feats.10.weight f4 [24, 24, 3, 3]
000000 d0 60 91 bf 80 7f 8a 3f df 1f 61 bf 77 f1 30 bf
       -1.135767 1.082016 -0.87939256 -0.69118446
000010 08 78 88 3f 48 b1 5c bf ec cb ba 3e 60 80 bc 3e
       1.0661631 -0.8620801 0.36483705 0.36816692
000020 0b 60 28 3f 0f 48 e7 bf 41 a0 b7 bf fa f2 1f c0
       0.6577155 -1.8068866 -1.4345781 -2.499205
000030 2d 65 62 3e 1e 2c 68 3d e9 dc 9a be 21 a6 3b 3e
       0.22108908 0.0566827 -0.30246666 0.18325092
000040 59 c9 cf 3d 1a d2 2a 3f 5a ab 2b bf 1e b6 56 3f
       0.10145826 0.6672684 -0.67058337 0.8387164
000050 93 2c 36 3f 20 21 aa 3d c3 2f 72 3f ee ee e6 3e
       0.71161765 0.08307099 0.9460413 0.45104164
000060 16 6d d6 3f 08 e1 bf be 92 03 ec bf ae 2e 79 3f
       1.675204 -0.37476373 -1.843859 0.9733685
000070 b2 dc b4 be 77 79 87 3f b7 d2 70 3e 37 a5 2f bf
       -0.35324627 1.0583943 0.23517881 -0.6861147
000080 7c 93 8f be 30 6d 28 3f c8 76 1b be da 39 8a 3f
       -0.2804221 0.65791607 -0.1518203 1.0798905
000090 e8 14 9c 3f ad 30 bb be a2 81 1d 3f df 25 02 40
       1.219388 -0.36560574 0.6152593 2.0335615
0000a0 4a 7b 99 3e f9 7a 9f bf 43 ee a9 3c b6 2d 2b 3f
       0.29976875 -1.2459403 0.020743495 0.66866624
0000b0 c4 49 17 bf 15 75 68 3e 35 7f 10 c0 ce 42 81 c0
       -0.5909693 0.22700913 -2.257764 -4.039405
0000c0 f1 d3 9e 3e 07 ab 05 c0 8a 56 64 bf 81 86 9f 3d
       0.31021073 -2.0885637 -0.8919455 0.077893265
0000d0 62 cd 98 be ea 43 e3 bd 15 0a b6 bf 59 a6 0c c0
       -0.29844195 -0.11096938 -1.4221827 -2.197653
0000e0 12 7a 02 c0 f1 fb 93 be 26 bf 6c be 2a 68 84 3e
       -2.0387006 -0.28903154 -0.23119792 0.2586072
0000f0 ae a7 b0 3f 6f 32 0d bf cd 1f 45 3e e6 48 7b 3f
       1.3801172 -0.5515508 0.19250412 0.9815811
000100 c6 5f 9a 3f 9f 07 64 ba e3 91 ff 3c be a1 f4 3f
       1.2060478 -0.00086986454 0.031197494 1.911186
000110 03 1a 50 bf be b7 d9 bf 15 e7 28 be f0 7a d9 be
       -0.8128969 -1.7009199 -0.16494401 -0.42476606
000120 57 cc ca 3e 89 28 03 3f f4 c8 60 bf e3 e6 36 bf
       0.39609024 0.51233727 -0.8780663 -0.71446055
000130 c5 ba 23 be 3d 24 66 bf 7f ed 26 bf 64 2e 2c bf
       -0.15989216 -0.89899045 -0.6520614 -0.67258286
000140 fd 54 99 be 05 7a 0c 3f eb 8a 16 c0 8c 40 e8 bf
       -0.29947653 0.5487369 -2.3522289 -1.8144698
000150 20 a4 16 3f 2e 18 5b 3d 60 98 cf bf 5b 03 9e 3f
       0.58844185 0.053489856 -1.6218376 1.2344774
000160 6b 63 ce be aa 43 5d bf a4 e2 3a c0 c0 17 24 c0
       -0.40310225 -0.8643137 -2.920083 -2.5639496
000170 f5 a1 90 bf 10 bf 6d bf bb 83 50 bf 71 97 9e 3e
       -1.1299425 -0.92869663 -0.81451005 0.30974916
000180 5a e9 9c 3f 98 bd f2 3f 26 b3 00 40 42 e8 98 bf
       1.2258713 1.896411 2.0109344 -1.194588
000190 19 e5 51 c0 55 44 b1 3f ef e3 3a 3f be a1 3c bf
       -3.279608 1.3848978 0.7300405 -0.736843
0001a0 da bd 5e 3f 40 59 af 3f 7c a4 a8 3f 1b 21 2b bf
       0.8700844 1.3699112 1.3175197 -0.6684739
0001b0 96 6f c7 3e af 98 5f bf 98 08 46 3f 01 2b 01 40
       0.3895232 -0.8734235 0.77356863 2.0182498
0001c0 bb ab d0 bd 42 79 ce 3e 7c eb f9 3e e4 89 49 bf
       -0.10189005 0.40326887 0.48812473 -0.7872603
0001d0 38 38 b4 bf 5a 54 80 3f f3 a1 dc 3e 7e ca 26 3f
       -1.4079657 1.0025742 0.43092307 0.6515273
0001e0 cd 7c ab 3f 41 c6 01 3e 77 25 c3 be fd 12 b6 bf
       1.3397461 0.12673284 -0.3811452 -1.4224545
0001f0 d1 8e c3 be ea 16 df bd b2 c4 2e 3e f4 38 02 c0
       -0.38194898 -0.108930424 0.17067221 -2.0347261
000200 72 d4 ea 3f 97 2c 90 3f c9 94 9d bf ef 11 f2 3f
       1.8346083 1.1263608 -1.2311031 1.8911723
000210 8f 90 bd 3f 16 34 15 3f ed 32 02 40 1d ab 03 c0
       1.4809741 0.582826 2.0343583 -2.057319
000220 ef 5d 87 3f a2 36 ae be 57 16 9e 3e 23 ce 0d 40
       1.0575541 -0.34026057 0.3087642 2.2157066
000230 27 e3 d3 3f 6f 64 d2 bf 81 54 76 3f ee e4 74 3f
       1.6553696 -1.64369 0.9622269 0.9566182
000240 45 48 e2 3f de 75 88 3e 39 be ac bd d1 80 13 3f
       1.7678305 0.26652426 -0.084347196 0.57618433
000250 8e 8c 1c bf 6b ae c4 bd ca 2e 48 3f ba 02 38 bf
       -0.6115197 -0.0960358 0.78196394 -0.7187916
000260 c3 bc d5 3d 77 6e c9 bf 53 40 94 bf dd 00 d7 be
       0.10436394 -1.5736836 -1.158213 -0.41992846
000270 fd 22 d6 3f bd 46 33 3f eb 70 4d bf b9 31 e5 be
       1.6729428 0.70029813 -0.80250424 -0.44764498
000280 0b 6a ad bf b9 fa 9b be a1 40 5e 3d 00 86 e5 be
       -1.3547987 -0.30464724 0.054260854 -0.44828796
000290 c6 a2 7c 3e 7d 44 d6 be 1b ea 86 bf c1 78 f1 3d
       0.24671468 -0.41849127 -1.0540193 0.1179061
0002a0 1d 94 b5 bf ff 85 84 bf ce 46 22 40 ad 58 da bd
       -1.4185826 -1.0353392 2.5355716 -0.10661445
0002b0 2f 6f e4 3e 4b e8 0c 3e 98 1e 8f bf c8 27 98 be
       0.44616076 0.13760488 -1.1181211 -0.2971785
0002c0 32 68 79 3f 5d 23 c4 be 8b 67 4a bf b3 9b c7 3f
       0.97424614 -0.3830823 -0.79064244 1.5594391
0002d0 4d 83 37 3f 07 ef 9e 3f 12 78 ec 3f b0 df 47 bf
       0.71684724 1.2416695 1.8474143 -0.78075695
0002e0 80 3e 06 bf ee 6e 1e 40 58 01 1d bf 9f 39 f3 bf
       -0.5243912 2.4755206 -0.61330175 -1.900196
0002f0 f5 5c bc 3f 2f d1 d0 3f bb ee c7 3e ef 29 b2 be
       1.4715868 1.6313838 0.39049324 -0.34797618
000300 ca 56 b1 3f ed 6f d7 be b4 dd 75 bf e4 cc 6e 3f
       1.3854611 -0.4207758 -0.9604142 0.9328139
000310 38 1f 8c 3f 3a 57 12 bf 1a 78 38 3e 93 d8 c9 bf
       1.0947027 -0.5716435 0.18014565 -1.5769218
000320 e3 b0 df 3f 66 29 dc be e4 5b af bf 4f d1 ab 3f
       1.7475857 -0.43000335 -1.3699918 1.3423251
000330 e1 7f 6f 3e 25 56 63 bf 72 72 a6 be c4 7d 37 bf
       0.23388626 -0.8880332 -0.3250919 -0.7167628
000340 ad 7d 89 be e1 21 ba bf b3 03 d3 bb d2 31 6b 3c
       -0.26853696 -1.4541589 -0.00643965 0.01435514
000350 0a f2 10 bf 4e 2a 4b 3f 8d 25 4f be dc 0f 93 bf
       -0.5661932 0.79361427 -0.20229168 -1.1489215
000360 c6 e9 4c bf 00 b2 d5 3f 8c 72 b7 3f f5 2b d6 bf
       -0.8004421 1.6694946 1.4331832 -1.6732165
000370 c9 01 cd bd 77 19 50 3b 8a 78 78 bf f9 d9 25 bf
       -0.10010106 0.003175346 -0.9705893 -0.64785725
000380 fc 71 9f 3e 43 33 7a be 10 97 9d be 38 c5 b7 bf
       0.3114165 -0.24433617 -0.30779314 -1.4357061
000390 3c c2 00 3f f4 ae 34 3f 77 8a 17 3f 3b b6 da 3f
       0.5029638 0.7057946 0.59195656 1.7086862
0003a0 42 bf e0 3f 0c 3f 2b 3f f1 29 21 3f a0 92 07 3f
       1.7558367 0.66893077 0.6295462 0.52958107
0003b0 37 ca 00 3f 68 27 f5 3f fa c9 a2 3f fb d1 18 bf
       0.50308555 1.9152651 1.2717888 -0.59695405
0003c0 49 19 cc 3f b0 c0 1c 3f ca df 0c bf 00 6e 0e 3c
       1.5945216 0.6123152 -0.55028975 0.008693218
0003d0 ac 6b 03 c0 13 d8 d3 bf 61 1a bd bf fb db 34 c0
       -2.0534468 -1.6550316 -1.4773675 -2.8259265
0003e0 04 06 c5 bf 9b 74 81 bf 3c 47 05 c0 4b 43 5e bf
       -1.5392461 -1.011371 -2.0824728 -0.8682143
0003f0 68 69 8e 3f cf 14 88 be 9a 74 cf bf ee 10 bf be
       1.1125917 -0.26578376 -1.6207459 -0.37317604

feats.10.bias f4 [24]
000000 60 5c b5 3e 7f 4f 2b 3f 58 1d 9f 3e 4a 14 cb be
       0.3542204 0.66918176 0.31077075 -0.39663917
000010 c3 8e c6 3e 77 1b 98 3f 2a 30 a7 be 79 d7 e5 3e
       0.38780794 1.1883382 -0.32653934 0.44890955
000020 55 e8 0a bf eb a1 49 3f 74 02 1f bf 23 ff 92 be
       -0.5426076 0.7876269 -0.6211312 -0.2871028
000030 e7 1e 8d 3d 0f 30 85 be 0b bd 90 bc 53 c9 1e bf
       0.0689066 -0.26013228 -0.017668268 -0.62025946
000040 a1 89 30 3e 5c 26 9f be 9c 33 28 3f 88 88 33 3e
       0.17240001 -0.31083953 0.6570375 0.17532551
000050 f1 ef b7 3e d6 a5 ab be 80 d8 f1 3d 84 fb fc 3e
       0.35925248 -0.3352496 0.11808872 0.4941064

feats.11.weight f4 [24]
000000 79 16 b8 3f e1 62 a4 3f c6 98 e2 3f f7 55 ac 3f
       1.4381858 1.2842675 1.7702873 1.3463734
000010 21 a1 cb 3f 04 58 b6 3f 61 b4 05 40 7f 26 c2 3f
       1.5908548 1.424561 2.0891345 1.5167998
000020 9f 94 c2 3f 60 ce be 3f ad 4c ce 3f 68 8d f6 3f
       1.5201606 1.4906731 1.611715 1.9261904
000030 c0 66 a3 3f 9a 23 21 40 80 f8 9e 3f 1d 17 bd 3f
       1.2765732 2.517798 1.2419586 1.4772679
000040 c0 58 10 40 ba 1a 0e 40 23 e7 d8 3f 57 7c fd 3f
       2.2554169 2.2203813 1.6945537 1.980357
000050 c4 3d cf 3f d4 e0 d3 3f c1 15 f3 3f 2c 81 df 3f
       1.6190724 1.6552987 1.8991014 1.7461295

feats.11.bias f4 [24]
000000 75 f6 84 be 7c 90 3d bf 0a 98 0c bf 92 16 13 bf
       -0.25969282 -0.7404859 -0.54919493 -0.57456315
000010 b2 ed 94 bf a9 06 36 bf 80 d7 63 bf 21 5d 64 bf
       -1.1635039 -0.7110391 -0.890007 -0.89204603
000020 56 c6 84 bf d1 0c 0a bf 67 e3 76 bf c1 ab 5b bf
       -1.0373027 -0.53925806 -0.9644074 -0.8580895
000030 7f ac 0b bf d9 f8 a7 be fd 43 2f bf a5 8c 54 bf
       -0.54560083 -0.32807043 -0.68463117 -0.83027107
000040 03 d2 60 bf 3e 27 40 bf 40 df 03 bf 08 b5 40 bf
       -0.8782045 -0.7505988 -0.5151253 -0.7527623
000050 a7 da 40 bf 8d 10 1a bf d0 bc bf be e6 76 82 bf
       -0.75333637 -0.60181504 -0.3744874 -1.0192535

feats.11.running_mean f4 [24]
000000 92 3d 2d c1 e7 b6 3c c0 24 2e a9 bf 14 c9 cd c1
       -10.827532 -2.9486635 -1.3217206 -25.723183
000010 43 36 c2 c1 7c 59 81 bf b2 ae 10 c2 cc d0 88 c1
       -24.276495 -1.0105433 -36.1706 -17.101952
000020 90 c4 da c1 3b a6 89 c1 81 3d 86 c1 ab e2 77 c1
       -27.345978 -17.206167 -16.780031 -15.492839
000030 ed bc 76 41 f0 2b 9c c1 db be 4b c1 3c 5d 89 c0
       15.421124 -19.521454 -12.734096 -4.292631
000040 ca 5d 37 c2 61 a2 d8 c1 ca b4 53 c1 7c d1 29 c2
       -45.84159 -27.079287 -13.231638 -42.454575
000050 14 51 8c c1 95 e6 9c c1 82 75 19 c2 bd 8f 8d c1
       -17.539589 -19.612589 -38.364754 -17.695185

feats.11.running_var f4 [24]
000000 69 e8 ad 43 77 9d 0c 44 98 55 0f 44 b5 b7 fe 43
       347.8157 562.4604 573.3374 509.4352
000010 43 ee e0 43 2b 60 e6 43 5d e5 fb 43 b7 24 e8 43
       449.86142 460.7513 503.7919 464.28683
000020 92 a5 e9 43 4b c6 0f 44 1c f3 c4 43 c1 79 c6 43
       467.29352 575.0983 393.8993 396.9512
000030 fb 90 5c 44 f0 1c c6 43 e0 b4 13 44 c2 d5 0e 44
       882.2653 396.22607 590.8262 571.33997
000040 22 19 cd 43 5b 42 ef 43 24 e9 19 44 7a a4 df 43
       410.19635 478.5184 615.6428 447.28497
000050 a3 ce c7 43 1b 6f 03 44 99 21 ec 43 b9 ae 96 43
       399.61435 525.736 472.26248 301.36502

feats.13.weight f4 [32, 24, 3, 3]
000000 2d dc 51 c0 9f 9e d1 bf cd 1a 2b c0 0b 63 37 c0
       -3.2790635 -1.6376532 -2.6735108 -2.86542
000010 2b 2b ce bd 78 8f 6d bf b4 23 85 be 22 41 04 40
       -0.100668274 -0.9279704 -0.26003802 2.0664754
000020 36 cb 0b 3f ad 73 cb 3e b2 75 85 3f 82 8d 6d 3f
       0.5460695 0.3973669 1.0426543 0.9279405
000030 7d e4 3a bf 91 a9 c0 3e a0 71 d6 3e b7 82 80 3c
       -0.73004895 0.3762937 0.41883564 0.01568733
000040 59 d0 20 3e e4 f2 bf be 25 d4 14 3f 8b 83 93 bf
       0.15704478 -0.37489998 0.58136207 -1.1524519
000050 06 75 30 bf 08 83 e6 3f eb 8b f5 3f 72 0a 08 3d
       -0.68928564 1.8008738 1.9183325 0.033213086
000060 0e 00 6f 3f 8b 4d 3a 3f 1b 65 8a be c2 d5 c8 bf
       0.9335946 0.7277457 -0.27030262 -1.5690234
000070 af b9 93 bf 9f a4 2e bf a1 ca 9e 3f ce 59 16 be
       -1.1541041 -0.6821994 1.2405587 -0.14682695
000080 92 a4 89 bf 78 ea cc bc ac 8d 04 bf bf 8d 05 bf
       -1.0753348 -0.025014147 -0.51778674 -0.5216941
000090 db 8a a3 bf 7a 9d 39 bf 83 66 b0 bf 99 63 c8 bf
       -1.277675 -0.72505915 -1.3781284 -1.5655395
0000a0 ab 78 13 3e 2d 47 ef 3f b3 e0 cd bf c4 8a 16 3f
       0.144015 1.8693596 -1.6084198 0.5880549
0000b0 7b 1a d3 3f 44 cb ab be d2 13 86 bf dd 87 ba 3e
       1.6492456 -0.33553517 -1.0474799 0.3643178
0000c0 81 c8 0d c0 9a 36 8d bf 09 0b 3b 3e af 49 44 3e
       -2.2153628 -1.1032288 0.18265928 0.19168733
0000d0 99 0f 02 c0 9c 73 e6 bf a2 aa 38 bf c2 26 a1 3c
       -2.032202 -1.8004031 -0.72135365 0.019671801
0000e0 19 e2 54 c0 1d f9 12 3f 95 bd ae 3f 4d b7 05 bf
       -3.3263 0.57411367 1.3651606 -0.5223282
0000f0 34 8a a0 3e fa a2 c6 3f 51 26 64 3f 12 67 08 bc
       0.3135544 1.5518486 0.89120966 -0.008325355
000100 c8 88 a6 be 31 4b b9 3f 33 3b e8 3e 8a 54 cc 3e
       -0.3252623 1.4476072 0.45357665 0.39908248
000110 45 82 18 3f 94 c2 1a bf f2 1c b7 bf 3a df 82 bf
       0.59573776 -0.6045315 -1.4305708 -1.0224373
000120 f0 c5 0b c0 7b 3a 15 c0 ed 64 bd bf 9c 17 20 3e
       -2.1839561 -2.3316944 -1.4796425 0.15634006
000130 bc 5e ab 3f d5 57 e4 3e 3b 07 1b bf ba 4c d8 be
       1.3388286 0.4459826 -0.6055791 -0.42246038
000140 0c 25 8d 3d a5 7e b3 3c 01 ea 09 3e 89 fc 36 3f
       0.06891832 0.021910975 0.13468172 0.7147909
000150 84 8c 78 3c f7 aa 1b 3f c1 56 d3 be 34 fa fd be
       0.01517022 0.60807747 -0.41277125 -0.49604952
000160 47 4e a3 3e 50 11 42 bf 82 7b e4 be f5 15 22 bf
       0.31895658 -0.75807667 -0.4462548 -0.63314754
000170 da 96 5a 3f 47 0b 92 3f f5 c5 a5 be 35 e0 d1 bf
       0.8538643 1.1409692 -0.32377592 -1.6396548
000180 29 5b 64 bf 11 08 37 bf 79 91 44 be ef 4d b9 3e
       -0.892016 -0.71496683 -0.19196118 0.3619227
000190 fa d6 9f 3f 69 27 a7 be 38 aa 6f bf 4b 88 f7 3c
       1.2487481 -0.32647255 -0.9361911 0.030216357
0001a0 aa 3b 77 bd 8f 54 09 c0 51 ec d7 be c8 db 19 3d
       -0.060359634 -2.145786 -0.42172483 0.037563115
0001b0 26 41 ae 3f 3a 5e be 3f 58 e6 90 3f a5 92 47 3f
       1.3613632 1.4872506 1.1320295 0.77958137
0001c0 c8 ab b0 3f e6 0f 73 3f be 2b 6b 3f 2e 34 b8 3f
       1.3802423 0.94946134 0.9186362 1.4390924
0001d0 d8 9e ea bd d0 73 50 bd be c3 2c bf cb f2 b6 3f
       -0.11456078 -0.050891697 -0.6748618 1.4292845
0001e0 15 1b 12 bf 11 a1 71 bf d6 77 04 40 09 02 4f bf
       -0.57072574 -0.9438639 2.0698142 -0.8086248
0001f0 d9 ba ae bf f4 8b 20 bf f3 c8 3a be d1 5c ce be
       -1.3650771 -0.6271355 -0.18240719 -0.40305188
000200 d6 9e a1 3d 61 53 05 bf 1e 76 b4 bf 0b 40 ec be
       0.07891624 -0.5208035 -1.4098547 -0.4614261
000210 55 d3 de bf 66 d6 98 3d d9 92 2c c0 10 e4 89 3e
       -1.7408243 0.07462768 -2.6964629 0.2693181
000220 04 1a ea bd 87 58 c6 be 01 2b 97 3f 70 0e 50 3f
       -0.11430743 -0.38739416 1.1809999 0.8127203
000230 93 5b 97 bf 40 c4 52 bf a8 ab bf be fc a3 03 c0
       -1.1824821 -0.82330704 -0.3743565 -2.0568838
000240 1f f7 f8 3f 1f 28 2d 3e ce e4 d6 3f d3 76 a3 bf
       1.9450415 0.16909836 1.6788576 -1.2770637
000250 1d 85 11 c0 6a 8a 8c bf a5 af 12 40 22 4a 42 40
       -2.2737496 -1.0979741 2.2919705 3.0357747
000260 32 5b 27 40 30 d8 9f bf 0b 0a aa bf 11 dc 8f bf
       2.6149411 -1.248785 -1.3284315 -1.1239034
000270 fd e4 94 bf e2 27 05 3f 41 85 fd 3e bf a2 38 3f
       -1.1632382 0.5201398 0.49515727 0.7212333
000280 de 80 81 3f 57 c4 25 3e 85 dc a8 3f 4a d7 4c 3f
       1.0117452 0.16188179 1.3192297 0.80016005
000290 7e 30 ec 3e 85 62 85 3f 22 ef e7 be 10 58 c6 bf
       0.46130747 1.0420691 -0.4529963 -1.5495625
0002a0 de b8 6c 3f f7 b2 f9 3d ea 5e 9a bf 79 b0 6e 3f
       0.92469585 0.12192338 -1.2060215 0.93238026
0002b0 db d8 be 3f e0 cf b2 3f 7f 32 4c bf 14 c2 df be
       1.4909929 1.3969688 -0.7976455 -0.43702757
0002c0 d5 9f 7f 3f 3e 9b f3 3f ea e3 2f bf 6a d1 fa be
       0.9985326 1.9031751 -0.68707144 -0.48987895
0002d0 c0 ee 81 3f c5 4b 55 3f 44 cc 2e 40 0f 17 89 3f
       1.0150986 0.8331874 2.7312174 1.0710162
0002e0 7f 88 6d bf 9e 48 eb be b8 5d e7 3c fd 14 04 c0
       -0.927864 -0.4595384 0.02824293 -2.063781
0002f0 08 e7 a1 bf c8 18 92 3e 3c fd 8f be 6d 31 e4 3e
       -1.264863 0.28534532 -0.2812289 0.4456896
000300 9e 31 4c bf 0c 62 04 3e c8 ef 70 bf 38 38 d0 3d
       -0.7976321 0.12928027 -0.9411588 0.10166973
000310 5a f2 ea 3f 53 99 fb 3e ae 62 0f c0 64 9c d0 bc
       1.835521 0.49140415 -2.240398 -0.025465198
000320 a3 79 22 3e 91 17 04 bf 5d 61 0a 3d e8 c2 9c be
       0.15866713 -0.5159846 0.03378426 -0.30617452
000330 49 b1 2b be 6b 7f 96 3d 52 21 9d bf 9e 34 63 bd
       -0.16766848 0.07348522 -1.2275794 -0.0554701
000340 61 9f f0 3f cd aa 18 40 f5 7b 24 bf c0 68 e6 3e
       1.8798639 2.3854249 -0.64251643 0.45001793
000350 9d 8b d7 3f 0a a3 8a bf 4a 64 8f be 00 ae 87 3f
       1.6839482 -1.0831006 -0.28006202 1.0599976
000360 cb ea 29 bf e7 56 45 3f 63 46 9e 3f ea 58 b3 3c
       -0.6637389 0.7708573 1.236523 0.021892983
000370 86 cd 54 bf 40 dc d1 3e bf 13 42 3e 27 d7 14 bd
       -0.83126104 0.4098835 0.18952845 -0.036337998
000380 49 21 7b 3f 5e ee 72 be db cb d7 bf 84 b4 0f c0
       0.98097664 -0.23723742 -1.6859087 -2.2453928
000390 e5 19 a8 bc c8 d1 a8 bf 9d 0d 9b bf a8 d7 65 bf
       -0.02052016 -1.318902 -1.211353 -0.8978219
0003a0 27 53 d0 bf 8f 76 7a bf 3d 9d 0f bf 04 0e d1 be
       -1.6275376 -0.97837156 -0.560993 -0.40831006
0003b0 62 21 bd 3d 01 3c 64 3e e2 b4 05 bf 2c 84 0e 3d
       0.09234883 0.22288515 -0.5222913 0.034794018
0003c0 eb 9a b6 3f 53 0e 93 3f 87 48 73 3f f0 b6 8e bf
       1.4266027 1.1488746 0.9503254 -1.1149578
0003d0 35 cc 42 bf ab 6f b6 3f 96 72 1f c0 80 9c d4 bf
       -0.76092845 1.4252828 -2.4913688 -1.661026
0003e0 76 77 90 3f 2b 2e a1 bf 26 c0 d9 bf 4e 8d b0 3d
       1.1286457 -1.2592214 -1.7011764 0.08620702
0003f0 f5 57 fe 3e 07 13 80 3f 3a 2b bc 3f 87 ca 1f bf
       0.4967648 1.0005807 1.4700692 -0.6241841

feats.13.bias f4 [32]
000000 bd c3 a5 3e bf 55 c1 ba 08 d3 1a 3f e6 49 0a bf
       0.323759 -0.0014750286 0.6047826 -0.5401901
000010 80 c7 74 be ad 3c 86 3c f6 7d 97 3d f0 33 0d 3f
       -0.23904228 0.016386354 0.07397072 0.55157375
000020 8d 0f 44 3d d7 b3 38 3f e5 e5 8a 3e f4 be 5b bf
       0.047866393 0.72149414 0.2712852 -0.85838246
000030 39 69 0b bf 46 ef bc 3b 91 18 08 bf 3c 8c 9a 3e
       -0.5445743 0.0057658283 -0.53162485 0.30185115
000040 c5 28 4a 3f c0 e0 55 3a d5 13 e9 3d 11 e4 4c bf
       0.7896846 0.00081587955 0.11380736 -0.800355
000050 a6 d6 3d 3d bf 65 cc be a7 46 1c be 68 c2 6b 3e
       0.046347283 -0.39921376 -0.15261327 0.23023379
000060 68 16 95 be fe 6a 9d 3f 94 71 10 3f a1 a7 63 3f
       -0.29118657 1.2298276 0.56423306 0.88927656
000070 d8 56 41 3f 0b 2d 88 bf 62 d9 3f bd 03 a1 de bf
       0.7552314 -1.0638746 -0.04683817 -1.7392887

feats.14.weight f4 [32]
000000 60 c5 ff 3f a6 6b ff 3f 01 92 d4 3f e1 0c ab 3f
       1.9982109 1.9954727 1.6607057 1.3363305
000010 3c 01 04 40 bd ce c2 3f 30 29 b3 3f db e6 06 40
       2.0625753 1.5219342 1.3996944 2.1078403
000020 f9 93 ee 3f 9e 26 a7 3f c5 24 c7 3f b5 a7 c7 3f
       1.8638908 1.305866 1.5558096 1.5598055
000030 a7 cb e2 3f a9 6b fb 3f f8 06 ca 3f 51 7f e8 3f
       1.77184 1.964223 1.5783377 1.8163854
000040 70 3d dd 3f b8 98 d1 3f bc 32 be 3f 0d b6 bd 3f
       1.7284374 1.6374731 1.4859233 1.4821182
000050 9e 7e 01 40 6e 4a 05 40 3e a2 b8 3f e3 42 f4 3f
       2.023353 2.0826678 1.4424512 1.9082912
000060 d1 ce f6 3f 95 e6 c7 3f 42 eb fd 3f 2f 0f dd 3f
       1.9281865 1.5617243 1.983742 1.7270259
000070 49 d7 bd 3f 8c b8 f9 3f b9 f1 ba 3f 8f b8 d9 3f
       1.4831325 1.9509444 1.4605018 1.7009448

feats.14.bias f4 [32]
000000 77 61 9d bf 0b 08 15 bf 55 8f 93 be e3 ae 0a bf
       -1.2295369 -0.582154 -0.2882029 -0.54173106
000010 03 8f 46 bf b5 f0 80 bf e0 82 01 bf 7c 1a 46 be
       -0.7756197 -1.0073458 -0.50590324 -0.1934604
000020 5c a1 6d bf 8d 94 9d bf b7 d3 a0 bd 08 fb 2c bf
       -0.9282434 -1.2310959 -0.078528814 -0.67570543
000030 3c 45 d6 be 88 f6 3d bf 9f 5c a3 bf c5 35 6d bf
       -0.41849697 -0.742043 -1.2762641 -0.9266017
000040 e4 bc 72 bf 0c df 13 bf ea 44 4a bf dc ab 71 bf
       -0.94819474 -0.5776222 -0.79011405 -0.9440286
000050 f6 09 74 bf 9e 08 8c be 67 dc 01 bf 7a 3e 35 bf
       -0.953277 -0.27350324 -0.5072693 -0.70798457
000060 56 3e 15 bf 56 47 17 bf 83 04 ac 3d 24 6a 2f bf
       -0.5829824 -0.59093225 0.08399298 -0.6852133
000070 4b c3 6d bf ee e1 7a bf e7 81 e7 be 1c f9 90 bf
       -0.9287612 -0.9800099 -0.45216295 -1.1326022

feats.14.running_mean f4 [32]
000000 ab f0 0e c1 d9 f9 64 c1 1e 98 7e c1 f5 db c4 3f
       -8.933757 -14.310998 -15.912138 1.5379626
000010 e6 2d b8 c1 17 4c f7 bf 69 b0 8a bf ee 74 5c c1
       -23.022411 -1.9320096 -1.0835086 -13.778547
000020 bf 8f 00 c1 65 50 a2 c0 37 e8 d7 c0 49 62 a6 c1
       -8.035094 -5.072314 -6.7470965 -20.79799
000030 ad c3 84 c1 a6 2e 14 c1 1d f4 9c bf 9f 0f c1 3f
       -16.595545 -9.261389 -1.2261997 1.5082892
000040 4a 21 67 c1 d4 04 07 c2 c1 72 f0 c0 66 f6 95 c1
       -14.445627 -33.754715 -7.514008 -18.745312
000050 d1 4c e8 c1 ed e9 d7 c0 8f 9f 00 c1 e6 a2 f9 c1
       -29.037508 -6.7473054 -8.038955 -31.20454
000060 1d 4d b9 bf 63 c9 b7 40 fd 6c 1f c2 07 19 38 c1
       -1.4476658 5.7433333 -39.856434 -11.50611
000070 4c 4a 44 c0 11 cb 88 c1 64 f3 88 c1 35 7e 51 c1
       -3.0670347 -17.099154 -17.118843 -13.093312

feats.14.running_var f4 [32]
000000 04 b6 e6 43 6e b6 01 44 ba e4 ee 43 a2 4f 0b 44
       461.422 518.85046 477.78693 557.24426
000010 fa ec 37 44 ee c5 d4 43 28 84 ce 43 fe 56 2a 44
       735.70276 425.54633 413.03247 681.35925
000020 f6 ef fc 43 ab ca d0 43 f8 54 d0 43 bb 19 5c 44
       505.8747 417.58334 416.66382 880.40204
000030 e9 9e 29 44 bd 6b 0e 44 7a a2 fd 43 38 58 b3 43
       678.483 569.6834 507.26935 358.6892
000040 f1 69 02 44 17 4d 20 44 c1 ef 26 44 50 06 9c 43
       521.65533 641.2045 667.74615 312.04932
000050 09 e5 fc 43 48 96 f5 43 99 95 ca 43 1c 71 18 44
       505.78934 491.17407 405.16873 609.76733
000060 02 7d c9 43 c8 3b d5 43 38 d2 94 44 bd 19 fd 43
       402.97662 426.46704 1190.5693 506.20108
000070 a3 0e 02 44 8f 16 09 44 7d d2 3d 44 80 45 99 43
       520.2287 548.3525 759.2889 306.54297
