MNIST-rot/models/rotmnist_model.pth (torch_old, 172610 bytes, 55 tensors)

bias f4 [10]
0.8674974 4.471641 -1.8385262 -1.8320514 2.6941857 0.36874497 -5.7172046 0.9406485
2.992197 -3.1301358
00000000: 4f14 5e3f af17 8f40 d454 ebbf a980 eabf
00000010: 8a6d 2c40 24cc bc3e 57f3 b6c0 57ce 703f
00000020: 2880 3f40 2554 48c0

conv2d_1_nf.weights_dict_-1 f4 [4, 1, 8]
0.03546081 0.079637885 0.07004764 0.020283375 0.2683585 0.0488124 0.06240034 -0.0110586565
0.16946425 0.0655927 -0.08553586 -0.042986065 -0.0112606725 0.014846097 -0.10023536 0.0761615
0.14250587 -0.114959195 -0.10663285 0.039663754 0.043937765 -0.21325639 0.03753259 -0.0803948
-0.04288789 0.023154663 0.084319636 -0.117034726 0.2301816 0.07294152 0.026856808 0.043478873
00000000: 5b3f 113d 3019 a33d 2375 8f3d 5229 a63c
00000010: 4966 893e 83ef 473d 8097 7f3d 5e2f 35bc
00000020: 0988 2d3e 7755 863d 6d2d afbd 2812 30bd
00000030: af7e 38bc 0b3d 733c 3248 cdbd 8ffa 9b3d
00000040: 0fed 113e ba6f ebbd 5362 dabd 7676 223d
00000050: 16f8 333d e25f 5abe c6bb 193d 07a6 a4bd
00000060: 36ab 2fbd d9ae bd3c c6af ac3d e7af efbd
00000070: bab4 6b3e 5d62 953d cf02 dc3c e716 323d

conv2d_1_nf.weights_dict_0 f4 [4, 1, 8]
3.210992 0.71931773 4.483592 1.4749815 -3.565134 0.12075983 -1.624593 2.003024
-3.6809788 0.03515887 -1.5272324 -2.0984712 -19.4434 0.90473706 2.785318 -2.7229958
-8.083695 -3.7631962 -2.8093982 -1.0753372 13.242996 -33.02292 2.631336 -2.5225196
8.389192 3.1678689 -10.356187 1.8813776 8.594893 5.6529374 3.6471112 3.6678038
00000000: e580 4d40 3525 383f 9679 8f40 32cc bc3f
00000010: 282b 64c0 ee50 f73d aaf2 cfbf 8c31 0040
00000020: 2895 6bc0 bf02 103d 5a7c c3bf 5a4d 06c0
00000030: 158c 9bc1 d99c 673f a642 3240 9045 2ec0
00000040: d156 01c1 35d8 70c0 2ecd 33c0 a6a4 89bf
00000050: 50e3 5341 7817 04c2 cf67 2840 f670 21c0
00000060: 213a 0641 5dbe 4a40 f1b2 25c1 fbd0 f03f
00000070: af84 0941 dde4 b440 456a 6940 4cbd 6a40

conv2d_1_nf.weights_dict_1 f4 [4, 1, 8]
-56.489445 87.48092 40.635204 -11.0682335 -29.18416 -56.867226 -42.183464 -0.30630448
24.842136 5.693087 15.475752 -4.2036037 1.483869 53.589085 -31.027605 3.2696006
22.809294 -17.76101 3.6567307 -21.377682 -2.25914 17.308271 0.7206717 -1.3970213
-4.051267 -23.874434 -1.490532 -35.212112 -7.9814873 -35.63521 39.28674 -1.9972464
00000000: 31f5 61c2 3bf6 ae42 738a 2242 7c17 31c1
00000010: 2979 e9c1 0a78 63c2 debb 28c2 f1d3 9cbe
00000020: b2bc c641 c52d b640 ae9c 7741 ec83 86c0
00000030: 6bef bd3f 395b 5642 8938 f8c1 2341 5140
00000040: 6f79 b641 8c16 8ec1 e007 6a40 7e05 abc1
00000050: c095 10c0 5777 8a41 f17d 383f 98d1 b2bf
00000060: fba3 81c0 d7fe bec1 c1c9 bebf 34d9 0cc2
00000070: 5868 ffc0 748a 0ec2 9f25 1d42 c5a5 ffbf

conv2d_1_nf.phase_dict_-1 f8 [1, 1, 1, 8]
0.869552768627976 1.6045677528407358 1.3842955978425073 4.877075217351281 3.4809508160565676 2.801049785463558 1.007789296343852 3.0707508773247736
00000000: c0e8 ec53 60d3 eb3f bcac 6a3c 4fac f93f
00000010: 76af 0b24 1326 f63f 959f 7a01 2082 1340
00000020: 6b94 cfbd fcd8 0b40 3845 38ca 8c68 0640
00000030: 22e4 50ab e71f f03f 892f 02d6 e590 0840

conv2d_1_nf.phase_dict_0 f8 [1, 1, 1, 8]
-0.9053006642100333 -2.1973451716004715 9.431557497540851 -14.19790099780853 -1.4783167583232846 7.769394791252736 -0.016753684133010427 16.439805767616413
00000000: 9188 3a19 39f8 ecbf 5961 90b4 2994 01c0
00000010: 2890 b41a f5dc 2240 e7dd 9247 5365 2cc0
00000020: 3009 2279 2fa7 f7bf b092 683a dc13 1f40
00000030: 3053 c1b5 e027 91bf 3281 5c1c 9770 3040

conv2d_1_nf.phase_dict_1 f8 [1, 1, 1, 8]
2.394950931777306 3.380952136578216 1.0429210435938974 1.5726151124683683 5.893670270892943 2.9970638595157304 5.360391257593283 -17.01875031714256
00000000: e910 bc08 dc28 0340 e08e 3fa2 300c 0b40
00000010: 55bc e8f9 cdaf f03f baf3 d376 6e29 f93f
00000020: 1392 ab4c 1e93 1740 1826 e59d fcf9 0740
00000030: 8582 e467 0a71 1540 bbea 1ed2 cc04 31c0

conv2d_nf_nf.weights_dict_-1 f4 [4, 8, 8]
0.05526351 -0.027068889 -0.01756347 -0.008054058 -0.055998906 0.013793059 0.033483867 0.04247765
-0.023481915 0.007037757 0.040861495 -0.048028834 -0.016054794 0.06409021 -0.029957788 -0.024773667
-0.03384558 -0.007547253 -0.030848362 0.0145052085 -0.0624555 -0.02282981 -0.012689815 -0.051814135
-0.014713115 0.008164997 0.0486381 -0.0043072733 -0.013479145 0.012941521 -0.018549109 -0.02545207
0.012861543 0.014015359 0.026207335 -0.03891199 0.00947591 0.009647382 0.049194302 -0.016659124
-0.0051007457 -0.077451654 0.06984916 -0.01228639 -0.053389166 0.015487801 0.015382783 -0.017204754
-0.03118514 -0.06668853 -0.042434372 -0.0036049078 0.0062598903 0.0036711576 0.0042537153 -0.009801481
-0.013753117 -0.01817349 0.0109847635 0.024714494 0.052666955 -0.02065987 0.013316233 -0.01503599
-0.020640776 0.015353892 0.0387737 0.0046564573 0.02137067 -0.0012436082 -0.046581328 -0.0055886437
-0.02260327 -0.004878333 -0.02381295 -0.023857731 -0.027173975 0.041087136 -0.020205952 0.07550659
0.051975742 0.0027250333 0.054390002 -0.009939169 -0.029385146 -0.038622286 -0.031993687 -0.06435657
-0.027034778 -0.015912239 0.055469222 -0.024111569 0.045260523 -0.0340696 -0.02519594 0.051441643
0.04371191 -0.012204319 -0.06620354 0.018745175 0.0007955887 0.00747434 -0.0022630172 -0.016084142
-0.022264611 0.02060373 0.0035493628 -0.013524631 -0.016454354 0.026258009 -0.059075348 -0.022649946
-0.01187376 0.0340598 0.04757165 0.06887011 0.05682966 -0.046235144 0.000832709 0.027950438
-0.0060545094 0.045440745 0.009921451 0.019993499 -0.08767227 -0.014578286 -0.10191876 -0.011808345
0.04795578 0.0014041002 0.014401256 0.029249387 -0.05583796 0.021772118 0.009701151 -0.019949228
-0.06345839 0.004242242 0.0269007 0.07671834 0.0028302816 0.013076131 -0.006820275 -0.038914766
-0.024138395 -0.008184484 0.054140404 0.007703509 -0.016785424 0.03524947 0.009165218 0.05137848
0.029209407 0.031086171 -0.02350528 -0.034469444 0.029988384 -0.0022863417 0.010598067 0.025935162
-0.032924403 0.039229464 -0.0064143487 -0.01751638 -0.07481106 -0.03836564 -0.019573832 0.055714764
-0.03676996 0.020146985 -0.061068587 0.058194596 -0.011888454 0.0727572 0.036565833 -0.051342167
0.03571382 -0.032956243 -0.00028491652 -0.016226534 0.03944338 0.08643159 0.0033231894 0.01957404
-0.018880442 -0.030631974 0.0076847426 -0.056116555 -0.0032230169 0.021565966 0.043644466 -0.09594795
0.025120242 -0.0040310607 0.05815261 0.036458597 0.0014058534 -0.020547144 -0.0120372325 -0.061996184
0.010275753 0.02929309 -0.04666812 -0.0061614215 0.003420103 0.02830569 0.015356298 0.010761586
0.009687403 -2.707139e-05 0.048176963 -0.02653554 -0.0170573 -0.035050698 0.03234707 -0.028407931
0.013261176 0.031235183 0.0008054431 0.025342908 0.031325642 -0.010374205 0.029767714 -0.022894163
-0.0053169955 0.0067950417 0.02386637 0.007057762 -0.020225232 -0.066326745 -0.036172643 0.029232508
0.013570143 -0.023585001 -0.05143046 -0.014320779 0.006563246 0.0036139349 0.050009336 -0.019020392
0.0037416911 -0.017021446 0.021888644 -0.0036911066 0.019548714 -0.00841764 0.06597477 0.01794681
0.020713072 0.026290243 -0.029380135 -0.051011644 0.016406313 -0.0079113785 0.024288518 -0.05670654
00000000: fe5b 623d 93bf ddbc 44e1 8fbc 2bf5 03bc
00000010: 1c5f 65bd 48fc 613c 6126 093d 0bfd 2d3d
00000020: 255d c0bc fc9c e63b 625e 273d e2b9 44bd
00000030: 5885 83bc ba41 833d 096a f5bc 25f2 cabc
00000040: aaa1 0abd f24e f7bb b4b5 fcbc 41a7 6d3c
00000050: 57d1 7fbd 9505 bbbc f1e8 4fbc 0f3b 54bd
00000060: 470f 71bc 7bc6 053c bf38 473d 0724 8dbb
00000070: a2d7 5cbc ac08 543c 4df4 97bc dc80 d0bc
00000080: 39b9 523c ada0 653c c4b0 d63c 2e62 1fbd
00000090: d940 1b3c 0e10 1e3c f77f 493d b778 88bc
000000a0: 2824 a7bb f99e 9ebd 140d 8f3d db4c 49bc
000000b0: 99ae 5abd 8cc0 7d3c 1108 7c3c fcf0 8cbc
000000c0: fb77 ffbc ff93 88bd aacf 2dbd 5140 6cbb
000000d0: c41f cd3b ce97 703b c062 8b3b 6496 20bc
000000e0: c154 61bc 92e0 94bc 70f9 333c 0d76 ca3c
000000f0: 4eb9 573d e33e a9bc 542c 5a3c 8359 76bc
00000100: d816 a9bc e48e 7b3c 2cd1 1e3d 3295 983b
00000110: 8b11 af3c 9100 a3ba 10cc 3ebd f120 b7bb
00000120: 7e2a b9bc 6cda 9fbb 6013 c3bc 4a71 c3bc
00000130: f59b debc fc4a 283d f486 a5bc 33a3 9a3d
00000140: 84e4 543d 7996 323b 0dc8 5e3d e5d7 22bc
00000150: 1eb9 f0bc 6732 1ebd d00b 03bd 61cd 83bd
00000160: 0a78 ddbc 625a 82bc b233 633d a085 c5bc
00000170: 1963 393d 918c 0bbd b767 cebc 79b4 523d
00000180: 420b 333d a0f4 47bc b995 87bd 7b8f 993c
00000190: 0e8f 503a 4feb f43b 214f 14bb e4c2 83bc
000001a0: 4664 b6bc 27c9 a83c 6d9c 683b 6a96 5dbc
000001b0: 48cb 86bc 091b d73c fef8 71bd 618c b9bc
000001c0: 298a 42bc 4a82 0b3d 7eda 423d c60b 8d3d
000001d0: 38c6 683d 1061 3dbd 284a 5a3a 51f8 e43c
000001e0: e864 c6bb 1320 3a3d 958d 223c 68c9 a33c
000001f0: 858d b3bd c3d9 6ebc c8ba d0bd ca77 41bc
00000200: 486d 443d c909 b83a 3ff3 6b3c 699c ef3c
00000210: 58b6 64bd 715b b23c 94f1 1e3c 906c a3bc
00000220: 79f6 81bd 8102 8b3b db5e dc3c 811e 9d3d
00000230: 3f7c 393b 453d 563c 9d7c dfbb 1765 1fbd
00000240: e2bd c5bc 3718 06bc 54c2 5d3d b86d fc3b
00000250: 9681 89bc c061 103d b629 163c 3e72 523d
00000260: 9148 ef3c 6da8 fe3c 258e c0bc d52f 0dbd
00000270: 33aa f53c 73d6 15bb 84a3 2d3c fa75 d43c
00000280: bddb 06bd 13af 203d 752f d2bb 837e 8fbc
00000290: 8b36 99bd 4a25 1dbd 4d59 a0bc 2a35 643d
000002a0: 199c 16bd 4a0b a53c 0e23 7abd 755d 6e3d
000002b0: cac7 42bc ba01 953d 0ec6 153d 2a4c 52bd
000002c0: a848 123d 20fd 06bd d960 95b9 82ed 84bc
000002d0: 628f 213d 0c03 b13d dec9 593b bd59 a03c
000002e0: 28ab 9abc e8ef fabc 4bd0 fb3b 79da 65bd
000002f0: 4039 53bb 1cab b03c 8ac4 323d 5c80 c4bd
00000300: f7c8 cd3c fd16 84bb 6e31 6e3d 9c55 153d
00000310: 9d44 b83a 7c52 a8bc d037 45bc b6ef 7dbd
00000320: a25b 283c 10f8 ef3c 1227 3fbd c0e5 c9bb
00000330: cf23 603b 56e1 e73c fb98 7b3c 5d51 303c
00000340: eab7 1e3c 5e17 e3b7 3555 453d 1061 d9bc
00000350: c0bb 8bbc 5291 0fbd 5c7e 043d c0b7 e8bc
00000360: 6745 593c ede0 ff3c 5f24 533a ee9b cf3c
00000370: 514f 003d 92f8 29bc 6cdb f33c 8a8c bbbc
00000380: 313a aebb f1a8 de3b 6883 c33c cc44 e73b
00000390: 63af a5bc 51d6 87bd c429 14bd 0379 ef3c
000003a0: 4e55 5e3c 5535 c1bc bfa8 52bd b3a1 6abc
000003b0: 7f10 d73b c4d7 6c3b 97d6 4c3d a7d0 9bbc
000003c0: 2937 753b 8f70 8bbc d04f b33c 7ee6 71bb
000003d0: a024 a03c 24ea 09bc c81d 873d 3005 933c
000003e0: 76ae a93c a35e d73c 9cae f0bc 96f1 50bd
000003f0: 8866 863c ba9e 01bc b7f8 c63c 1e45 68bd

conv2d_nf_nf.weights_dict_0 f4 [4, 8, 8]
-5.252231 -13.51003 31.732054 -7.6022353 -3.8858595 -9.517536 11.740397 -7.5412416
0.076757535 -41.36004 54.092518 -61.400906 16.948889 4.2211804 4.4985514 11.402307
2.3199475 -9.432357 -53.198303 -38.49274 0.25472093 0.41558516 2.264342 -21.468992
6.476296 31.82049 -32.511696 -0.3039925 0.022379087 0.67942667 0.47004426 -49.49112
72.05146 -1.5574563 -5.591726 -5.2407084 35.055035 0.89482594 -2.3575501 -11.737286
-64.73882 0.4956392 -2.9461508 -0.9771704 -60.81834 -2.7615492 -1.2325182 26.186031
1.3895949 1.368396 -6.341891 0.054738678 -7.9778743 56.161427 -7.3580375 -14.048058
-0.94546616 0.42975438 8.302359 0.80453527 -0.071458116 3.5642815 -1.3562149 -2.1230948
-3.4929802 6.84939 4.945607 11.957808 1.3301616 2.824207 -7.6246524 -53.209415
2.672406 -21.717382 124.665794 -42.449764 -6.4034634 -10.7525 -11.296904 10.765814
0.55251235 -15.161221 -7.5632963 4.118301 5.9605007 -0.26594007 0.3938449 -13.551602
4.721759 36.441067 -4.6227074 -0.79817975 0.3140125 -1.0699447 -0.4195268 -13.341294
76.94957 -7.9464054 7.3344226 -2.3337553 22.991547 -2.3453186 2.0651586 -8.539282
-46.850952 1.3155985 -2.950649 0.5707735 -20.161667 7.029082 -0.2567383 24.07592
0.97606057 7.382011 12.371851 0.1285569 -2.4187026 -5.3920326 7.4318986 -27.553108
0.62251794 -0.18586388 1.7443384 -2.690132 1.3223811 -1.9298337 1.1821303 2.1449418
-3.068074 31.260895 -63.917053 -44.645348 -4.62823 13.834841 -30.838984 23.314655
6.4354544 10.818921 42.290516 36.108723 10.446751 11.50361 15.325081 14.079044
-1.2467407 -3.0065715 22.185114 23.275486 -2.9621415 -0.5081903 0.9632425 6.638263
0.6049569 -16.969559 15.326357 0.92582643 -0.45039228 -0.19561611 3.8467271 21.86956
43.006763 0.34710693 6.503362 -1.7092708 -15.561302 3.1812377 -0.81931955 -5.841772
15.929179 0.6833128 -9.076924 0.8821328 38.141773 -15.997069 1.6872351 -0.16069598
-2.4904304 7.9923973 -8.4550295 0.22595994 -20.038307 -142.66052 11.099202 33.313244
0.40370306 -0.122380614 -5.8445435 -1.4118496 0.009686407 -10.510995 4.0250936 2.0040712
-5.6778407 32.31185 2.2838702 35.56457 4.0810275 -11.151785 18.07323 58.80088
2.538484 -17.5999 81.48109 -142.0957 -25.797024 -13.768751 -7.61144 7.340938
-3.272542 0.57638556 19.896252 -6.781922 0.0708752 0.22338025 1.0847981 23.632984
-2.3234382 -38.006397 12.6254225 2.5574367 0.09200895 0.5592313 2.7699387 46.60227
6.5524416 5.512061 -1.9124807 -4.376336 -35.690033 -0.8642124 2.5188358 -7.847814
31.743387 0.12151561 -7.496613 -2.2706773 41.149055 12.412877 3.0731797 -42.17567
-5.572986 8.263437 -6.036565 -0.328369 31.766521 102.8542 -12.384452 13.921905
-0.4603745 -0.5340333 -13.799141 1.6769041 0.67027956 11.192031 -0.84103364 3.1537032
00000000: 4712 a8c0 1529 58c1 3fdb fd41 8345 f3c0
00000010: ecb1 78c0 d447 18c1 abd8 3b41 da51 f1c0
00000020: 0e33 9d3d ae70 25c2 bd5e 5842 879a 75c2
00000030: 5397 8741 e913 8740 22f4 8f40 d96f 3641
00000040: 057a 1440 efea 16c1 10cb 54c2 91f8 19c2
00000050: c86a 823e 94c7 d43e fbea 1040 7fc0 abc1
00000060: d13d cf40 5d90 fe41 fa0b 02c2 e8a4 9bbe
00000070: 5954 b73c e8ee 2d3f a4a9 f03e e8f6 45c2
00000080: 591a 9042 ba5a c7bf 6bef b2c0 e2b3 a7c0
00000090: 5b38 0c42 5013 653f 1ae2 16c0 eccb 3bc1
000000a0: 477a 81c2 6cc4 fd3e bc8d 3cc0 d727 7abf
000000b0: fb45 73c2 39bd 30c0 28c3 9dbf fe7c d141
000000c0: 3fde b13f 9a27 af3f c5f0 cac0 aa35 603d
000000d0: bf4a ffc0 4da5 6042 0b75 ebc0 d8c4 60c1
000000e0: 120a 72bf c408 dc3e 76d6 0441 06f6 4d3f
000000f0: a258 92bd 301d 6440 7398 adbf c9e0 07c0
00000100: fd8c 5fc0 342e db40 6a42 9e40 2e53 3f41
00000110: bc42 aa3f cfbf 3440 27fd f3c0 71d6 54c2
00000120: b308 2b40 33bd adc1 e354 f942 8fcc 29c2
00000130: 2ce9 ccc0 3d0a 2cc1 1ec0 34c1 c640 2c41
00000140: 7371 0d3f 5c94 72c1 8606 f2c0 1fc9 8340
00000150: 6cbc be40 4c29 88be 0aa6 c93e 5dd3 58c1
00000160: a618 9740 a7c3 1142 38ed 93c0 8255 4cbf
00000170: 3fc6 a03e f3f3 88bf 37cc d6be f175 55c1
00000180: 2ee6 9942 f448 fec0 97b3 ea40 3f5c 15c0
00000190: b0ee b741 b319 16c0 8f2b 0440 e6a0 08c1
000001a0: 6067 3bc2 8865 a83f 6fd7 3cc0 361e 123f
000001b0: 184b a1c1 3dee e040 3473 83be 7c9b c041
000001c0: 1bdf 793f 6f39 ec40 1af3 4541 6ca4 033e
000001d0: 06cc 1ac0 888b acc0 1dd2 ed40 c46c dcc1
000001e0: 565d 1f3f 1a53 3ebe 7b46 df3f 1f2b 2cc0
000001f0: c943 a93f ca04 f7bf 0c50 973f ba46 0940
00000200: 535b 44c0 5016 fa41 10ab 7fc2 d694 32c2
00000210: 761a 94c0 825b 5d41 3db6 f6c1 6a84 ba41
00000220: 3eef cd40 4d1a 2d41 7d29 2942 556f 1042
00000230: e425 2741 c90e 3841 8833 7541 c443 6141
00000240: 3395 9fbf ab6b 40c0 1d7b b141 3234 ba41
00000250: ba93 3dc0 c218 02bf 0f97 763f a76c d440
00000260: 75de 1a3f a8c1 87c1 c238 7541 f602 6d3f
00000270: d199 e6be 974f 48be c730 7640 dcf4 ae41
00000280: ed06 2c42 00b8 b13e 8b1b d040 63c9 dabf
00000290: 18fb 78c1 6699 4b40 edbe 51bf ccef bac0
000002a0: ebdd 7e41 96ed 2e3f 153b 11c1 75d3 613f
000002b0: 2d91 1842 fff3 7fc1 52f7 d73f 7d8d 24be
000002c0: 3663 1fc0 b8c1 ff40 cd47 07c1 0b62 673e
000002d0: 744e a0c1 18a9 0ec3 5596 3141 c340 0542
000002e0: 2bb2 ce3e b0a2 fabd 8006 bbc0 7db7 b4bf
000002f0: bcb3 1e3c 092d 28c1 91cd 8040 b442 0040
00000300: dfb0 b5c0 563f 0142 ee2a 1240 1f42 0e42
00000310: c797 8240 b66d 32c1 fa95 9041 1a34 6b42
00000320: 8676 2240 98cc 8cc1 51f6 a242 8018 0ec3
00000330: 4e60 cec1 ce4c 5cc1 eb90 f3c0 f7e8 ea40
00000340: 5471 51c0 018e 133f 862b 9f41 8105 d9c0
00000350: 0427 913d cbbd 643e aada 8a3f 5a10 bd41
00000360: 36b3 14c0 8d06 18c2 bb01 4a41 0bad 2340
00000370: 306f bc3d c829 0f3f ad46 3140 b968 3a42
00000380: 9aad d140 ce62 b040 2bcc f4bf f20a 8cc0
00000390: 98c2 0ec2 063d 5dbf 9b34 2140 4b21 fbc0
000003a0: 75f2 fd41 2ddd f83d 41e4 efc0 c752 11c0
000003b0: a298 2442 259b 4641 faae 4440 e3b3 28c2
000003c0: e755 b2c0 0a37 0441 8a2b c1c0 fb1f a8be
000003d0: d621 fe41 5ab5 cd42 b726 46c1 1fc0 5e41
000003e0: 35b6 ebbe 68b6 08bf 48c9 5cc1 cba4 d63f
000003f0: 7197 2b3f 8f12 3341 fb4d 57bf 46d6 4940

conv2d_nf_nf.weights_dict_1 f4 [4, 8, 8]
41.35259 0.7241186 60.777206 -0.49509734 -64.93979 -8.875889 -58.92825 17.764677
-8.6241455 8.51256 -46.57362 -4.8473926 -33.839413 6.6721454 104.31027 -23.551186
0.5968839 107.784386 49.09268 -65.467606 -36.08693 -1.1541228 -69.74635 -10.255234
-18.4224 1.5690144 43.929512 55.146343 -52.172867 5.900977 -3.1604576 16.099546
2.274521 135.14944 -1.3181875 -179.18456 6.1129127 4.2844524 -130.94527 -2.970154
-6.122573 -5.5274043 -7.902323 0.7070153 -47.4586 5.6168866 78.855644 -5.3953257
-3.1337225 3.2471204 3.3757792 5.301807 -6.7360587 1.62881 28.24218 -7.2760296
-4.279145 2.1992795 8.664854 -3.4387586 39.907143 -8.693663 6.016889 -26.563437
100.06962 14.384371 39.518063 -0.8659031 157.64464 -28.673683 28.430494 -11.056414
12.157605 0.18898179 -32.468567 11.097262 54.520943 11.716459 -27.095985 -2.9248602
-1.3144948 30.895576 5.494247 28.541298 4.633488 0.68730074 17.96292 0.23520185
15.382622 -1.8448055 26.721605 -9.517105 33.847885 -4.780549 7.0467362 5.6162205
-4.1062365 89.09361 -8.9323435 -32.515297 -3.30956 -10.012683 -16.87821 1.6887949
4.009216 2.2621675 10.054092 -3.1086369 34.03064 -11.705378 -48.822468 6.534652
4.9541383 1.3251885 6.039396 -38.94186 19.634916 9.161312 -4.900904 1.104816
5.7635474 -2.463077 17.13921 12.8472595 -40.383907 28.998022 4.803804 38.473938
55.238323 -2.2193434 -22.01156 1.1254303 94.11947 -11.289553 4.9979377 -12.928611
4.892839 -8.491907 22.371836 8.517434 24.175703 -3.6738546 -27.674833 8.917544
-0.742103 6.501722 -18.335722 32.947277 15.052571 0.6151929 21.036282 4.8744454
23.361652 -0.678901 -49.158882 -5.726222 36.64156 -1.0249935 2.2257345 -7.4479375
-0.53150594 44.257423 -3.438581 43.581963 -0.63688135 -0.2901373 37.301834 -1.7990777
0.32915857 1.2138889 2.6371994 -1.735507 19.291883 -3.5172083 -22.740387 1.8364115
2.4950783 -1.3707546 -1.7763516 -14.889347 5.578309 1.1636697 -2.3796687 3.5242262
3.6334612 -1.4592344 2.1674845 3.0049696 -14.8186655 8.590894 0.69960284 14.650709
4.8151817 -20.162058 -50.467545 2.0320914 -38.343273 15.425058 -16.686518 -1.612779
-11.087219 -11.209077 42.663754 0.20277509 -35.26037 -22.43318 -9.637021 7.2033806
2.755599 4.078176 -23.13418 9.450773 5.7342224 0.5132023 1.7654103 4.3878884
17.671879 1.5176846 -99.86959 6.6919336 -1.5973114 6.4684997 -6.705708 -13.251586
2.3248606 18.008072 16.509373 52.147633 1.0791852 10.762992 51.233555 -5.982677
-2.4869864 -3.285925 -7.7815595 -0.42809692 -19.805016 11.280669 34.05282 -6.4364657
-5.723093 -2.2673342 -6.9184856 26.586153 -14.971958 -8.706071 -6.547917 2.691654
-1.7472609 1.8537802 -15.138591 -12.639845 33.37809 -27.23228 -0.26848587 -32.570614
00000000: 0d69 2542 d65f 393f dc1b 7342 667d fdbe
00000010: 2ce1 81c2 a403 0ec1 87b6 6bc2 0f1e 8e41
00000020: 80fc 09c1 7233 0841 634b 3ac2 d71d 9bc0
00000030: 8f5b 07c2 3782 d540 dc9e d042 d468 bcc1
00000040: 62cd 183f 9b91 d742 e85e 4442 6aef 82c2
00000050: 0459 10c2 4cba 93bf 227e 8bc2 7015 24c1
00000060: 1361 93c1 77d5 c83f d2b7 2f42 db95 5c42
00000070: 04b1 50c2 ced4 bc40 f044 4ac0 dfcb 8041
00000080: c191 1140 4226 0743 5eba a8bf 3f2f 33c3
00000090: fb9c c340 3c1a 8940 fdf1 02c3 0117 3ec0
000000a0: 1eec c3c0 7fe0 b0c0 d4df fcc0 f4fe 343f
000000b0: 9bd5 3dc2 89bd b340 17b6 9d42 82a6 acc0
000000c0: e98e 48c0 d2d0 4f40 c40c 5840 67a8 a940
000000d0: cb8d d7c0 d97c d03f fcef e141 3cd5 e8c0
000000e0: c1ee 88c0 ffc0 0c40 3ea3 0a41 9f14 5cc0
000000f0: eaa0 1f42 3e19 0bc1 5b8a c040 eb81 d4c1
00000100: a523 c842 6226 6641 7f12 1e42 d3ab 5dbf
00000110: 07a5 1d43 b463 e5c1 a771 e341 12e7 30c1
00000120: 8d85 4241 7184 413e d0df 01c2 638e 3141
00000130: 7215 5a42 9e76 3b41 94c4 d8c1 e930 3bc0
00000140: 5e41 a8bf 242a f741 dfd0 af40 9454 e441
00000150: 8945 9440 f1f2 2f3f 0fb4 8f41 c1d8 703e
00000160: 381f 7641 9622 ecbf d9c5 d541 1046 18c1
00000170: 3c64 0742 42fa 98c0 dd7e e140 14b8 b340
00000180: 4a66 83c0 ee2f b242 e1ea 0ec1 aa0f 02c2
00000190: d5cf 53c0 f333 20c1 9306 87c1 6e2a d83f
000001a0: 7f4b 8040 5ac7 1040 90dd 2041 e8f3 46c0
000001b0: 601f 0842 3a49 3bc1 354a 43c2 df1b d140
000001c0: 4d88 9e40 c79f a93f bb42 c140 77c4 1bc2
000001d0: 4f14 9d41 bc94 1241 35d4 9cc0 9c6a 8d3f
000001e0: fb6e b840 0ea3 1dc0 1a1d 8941 608e 4d41
000001f0: 1f89 21c2 f3fb e741 c3b8 9940 50e5 1942
00000200: 0bf4 5c42 b909 0ec0 ad17 b0c1 1a0e 903f
00000210: 2b3d bc42 02a2 34c1 1bef 9f40 97db 4ec1
00000220: 2392 9c40 dade 07c1 85f9 b241 6947 0841
00000230: d767 c141 6f20 6bc0 0f66 ddc1 43ae 0e41
00000240: 76fa 3dbf 1b0e d040 8faf 92c1 03ca 0342
00000250: 55d7 7041 487d 1d3f 4e4a a841 75fb 9b40
00000260: aae4 ba41 75cc 2dbf b2a2 44c2 363d b7c0
00000270: f590 1242 fd32 83bf 6f72 0e40 8155 eec0
00000280: c610 08bf 9a07 3142 b611 5cc0 ee53 2e42
00000290: a80a 23bf e08c 94be 1435 1542 2e48 e6bf
000002a0: 7987 a83e b660 9b3f e0c7 2840 1825 debf
000002b0: c755 9a41 f119 61c0 50ec b5c1 880f eb3f
000002c0: 5daf 1f40 e374 afbf 7d5f e3bf c43a 6ec1
000002d0: 8281 b240 21f3 943f 7e4c 18c0 ec8c 6140
000002e0: a18a 6840 31c8 babf 11b8 0a40 6c51 4040
000002f0: 4119 6dc1 4d74 0941 2c19 333f 4e69 6a41
00000300: f815 9a40 e54b a1c1 c4de 49c2 c90d 0240
00000310: 835f 19c2 0acd 7641 fd7d 85c1 8b6f cebf
00000320: 4065 31c1 6158 33c1 afa7 2a42 46a4 4f3e
00000330: 9e0a 0dc2 2777 b3c1 3d31 1ac1 1882 e640
00000340: bc5b 3040 6b80 8240 cd12 b9c1 5e36 1741
00000350: c07e b740 3a61 033f f7f8 e13f 9569 8c40
00000360: 0260 8d41 7d43 c23f 3bbd c7c2 5224 d640
00000370: b374 ccbf f3fd ce40 2995 d6c0 7f06 54c1
00000380: 84ca 1440 8810 9041 3213 8441 2d97 5042
00000390: be22 8a3f 3735 2c41 29ef 4c42 1772 bfc0
000003a0: c92a 1fc0 984c 52c0 8902 f9c0 852f dbbe
000003b0: ac70 9ec1 9f7d 3441 1636 0842 87f7 cdc0
000003c0: 9423 b7c0 011c 11c0 3c64 ddc0 71b0 d441
000003d0: 248d 6fc1 114c 0bc1 8988 d1c0 0f44 2c40
000003e0: 3fa6 dfbf ab48 ed3f ab37 72c1 ce3c 4ac1
000003f0: 2a83 0542 b6db d9c1 fb76 89be 4f48 02c2

conv2d_nf_nf.phase_dict_-1 f8 [1, 1, 8, 8]
0.6988674502105112 3.3620738046633627 4.3445984255331505 0.898093034148993 3.6017535187546703 4.772900453608384 0.17042429404770754 5.645586582074715
3.847153771097916 5.269153285020127 2.147235609318747 0.16081227573644188 4.567807031754318 2.606769759468393 5.336042859030653 1.721798681539893
2.8300918578319405 3.645117704132306 5.730197704423057 1.0602502301128274 0.16507596826574014 2.526804175704958 1.6950626831572566 0.016951446395308843
5.953048324824342 4.728261495473221 5.4485882218659665 2.130829231159462 2.057612610313717 6.279418077902542 6.2646899506519995 3.555901622814867
0.17357745884671544 5.188062642111546 5.583615484171024 2.7671902089005895 4.50531697051607 1.5629815808285406 2.2150119617745028 0.49600485625666546
5.906022710666629 6.149845743285783 3.7130208074286806 2.8956029617995895 1.7541748162669235 5.2400039575795025 2.4158175086812532 0.2600684975310069
4.070798706488874 3.490504527705703 5.223918566537556 3.9310213920620445 6.164828120125778 0.7181490897643136 4.664820575863552 0.45865600268368883
3.083733540019862 4.862388652680903 3.1686813034952532 3.283100620239929 6.071515509974008 0.9552546916128811 1.3361740280625554 6.064205411725776
00000000: e693 5c45 1f5d e63f b523 6ef3 86e5 0a40
00000010: 01ac df68 de60 1140 46ee 4d9a 2dbd ec3f
00000020: 116f 1a26 64d0 0c40 0d3f 6d37 7317 1340
00000030: 3c7c b098 76d0 c53f 42fd 22a6 1495 1640
00000040: 9263 6c8e f8c6 0e40 f316 33eb 9c13 1540
00000050: 2ca5 f6dc 892d 0140 49ab 8a24 7f95 c43f
00000060: 654b df34 6f45 1240 c2f2 881a aada 0440
00000070: 2d5d 869e 1b58 1540 f927 38c6 7c8c fb3f
00000080: 3583 3033 07a4 0640 068d 8a78 3329 0d40
00000090: fa71 70f2 b8eb 1640 bc93 fef1 c8f6 f03f
000000a0: 1948 8796 3521 c53f 6b64 901b e536 0440
000000b0: 6e49 4d0c fa1e fb3f f60d 8d4f b85b 913f
000000c0: 3683 6ae6 ebcf 1740 62f9 a761 bde9 1240
000000d0: f623 f9b5 5acb 1540 9586 2932 f00b 0140
000000e0: ad13 a999 fd75 0040 a902 cac5 1f1e 1940
000000f0: 5185 e6e1 0a0f 1940 f543 ce8c 7c72 0c40
00000100: 0ae3 8842 c937 c63f afdf 457e 93c0 1440
00000110: a5d0 274c 9f55 1640 c650 c89e 3423 0640
00000120: d8eb d9cf 7105 1240 1c8b 5ef9 f801 f93f
00000130: f58f 0031 58b8 0140 4ce4 1127 8bbe df3f
00000140: 5bfc de6a c49f 1740 d36d 9b29 7199 1840
00000150: 8830 ca40 44b4 0d40 300a b9e2 312a 0740
00000160: f954 b59c 1911 fc3f afdb f298 c3f5 1440
00000170: 161f 4721 9853 0340 de64 e756 f6a4 d03f
00000180: 12e0 c374 7f48 1040 9149 48a3 8dec 0b40
00000190: e8fb a0e8 4ae5 1440 5443 f657 bb72 0f40
000001a0: 029b e5b3 c8a8 1840 9f13 c6cc 13fb e63f
000001b0: d92a 9cb9 c6a8 1240 79fe e8b4 9e5a dd3f
000001c0: 7cb5 7f7d 7cab 0840 edd2 ce02 1673 1340
000001d0: 8cab 4f95 7559 0940 3243 0b42 ca43 0a40
000001e0: 02fb a15c 3b49 1840 137e 7a49 7291 ee3f
000001f0: 33b1 8404 f860 f53f 8c5a 3e10 bf41 1840

conv2d_nf_nf.phase_dict_0 f8 [1, 1, 8, 8]
16.185140390038356 18.849555913518667 12.566370614953344 -19.279599440528138 -6.282480665588803 9.424940721190142 -2.3415966825763847e-10 15.707963012027346
4.55064928410405 43.98229715017294 6.236380091396093 -2.714480371815645e-13 -0.0001304012470441022 18.84955592153838 -2.173856853521858 3.1415925633419053
-6.650018941358608 3.141585380570326 6.300887270806013 3.141592656152161 3.863126428534468 7.995743416481473 -25.132800560153324 -6.283185307621113
25.13280960597843 3.1415930585448053 3.1508295826157844 -3.9911437751180316 20.416048608169223 -1.5949517680401843 28.274347365393556 3.1415926539330936
-0.001744578087569621 3.1415926415547517 -19.021640226504744 -18.84956819059341 18.849555922427506 23.46421036412009 6.987336269410842 -18.849555818096604
9.424777960769156 -37.83415257866386 16.116939664380297 35.59848680671359 6.283184445035444 16.876254861624933 24.854036526577218 3.141592653588271
12.566254348412697 2.6192944230932793e-06 -12.565520354728205 14.208776614740941 -9.128103013352298 9.42477796076938 7.350486708275042 -12.564348071876887
-4.670674741605074 -10.812679135408414 12.566227309293508 -16.24926474658689 11.659546085340606 1.699017379233121 30.8012087694053 -31.418467405069432
00000000: 2862 505c 652f 3040 a3af 107f 7cd9 3240
00000010: b147 4954 fb21 2940 5a0c 35d4 9347 33c0
00000020: 2cd3 919c 4221 19c0 2980 88d4 91d9 2240
00000030: f4bb 0b65 6117 f0bd c6de be20 7a6a 2f40
00000040: bb2b eb67 dd33 1240 3079 bbe9 bbfd 4540
00000050: 08e3 679f 0df2 1840 5520 281e f919 53bd
00000060: ef8e cd2e 8a17 21bf 6721 337f 7cd9 3240
00000070: a77e e00f 0f64 01c0 4748 2748 fb21 0940
00000080: bea9 bb90 9e99 1ac0 4f21 1984 f721 0940
00000090: fd93 efca 1b34 1940 ec37 9c54 fb21 0940
000000a0: 59f3 36d4 aee7 0e40 1ffb 8329 a4fb 1f40
000000b0: bfbf ae37 ff21 39c0 f3c2 4b54 fb21 19c0
000000c0: a245 72cf ff21 3940 0d53 9e8a fb21 0940
000000d0: 3fd5 e423 e634 0940 9d20 9ec9 dced 0fc0
000000e0: 15a2 5d29 826a 3440 28e1 2625 ec84 f9bf
000000f0: ed1b 02a1 3b46 3c40 ccf8 4f54 fb21 0940
00000100: 1c25 3675 4a95 5cbf c0a7 a652 fb21 0940
00000110: ac1d c136 8a05 33c0 1252 0a4d 7dd9 32c0
00000120: 02f3 367f 7cd9 3240 2b5c 8c7d d676 3740
00000130: cb18 6d47 08f3 1b40 f8d9 767d 7cd9 32c0
00000140: 5421 337f 7cd9 2240 209e fe82 c5ea 42c0
00000150: 5c1e 02c2 ef1d 3040 0ff6 3637 9bcc 4140
00000160: 0fa7 681a fb21 1940 dda3 153d 52e0 3040
00000170: 143d 4723 a2da 3840 b41f 4454 fb21 0940
00000180: f74c 0717 ec21 2940 3788 5e56 e4f8 c53e
00000190: 578f 49e2 8b21 29c0 c0f6 b8c4 e46a 2c40
000001a0: febb d9b7 9641 22c0 d221 337f 7cd9 2240
000001b0: 60e5 d6fc e566 1d40 358b 003b f220 29c0
000001c0: c6c9 055c c5ae 12c0 ff70 c97a 17a0 25c0
000001d0: 0f09 bf8b e821 2940 eca2 7ed0 cf3f 30c0
000001e0: 477c 4506 b051 2740 2845 f2d8 2c2f fb3f
000001f0: 3add 9504 1ccd 3e40 1737 0bae 206b 3fc0

conv2d_nf_nf.phase_dict_1 f8 [1, 1, 8, 8]
5.702726246392382 -3.2793955994919495 -11.950030667530994 18.84263549253784 9.545839130244772 -15.569357261115394 5.678330172317421 12.251009469980465
-2.212383270343307 0.23021043524689025 -2.360484001440755 3.6621252918568232 7.657161361265332 19.927293313102155 0.4601012929261611 -14.054908298115231
-1.247870818910317 1.1936394061229747 -0.42656379789485455 0.9507320160957203 2.3576353479945023 9.109175782313438 7.60820029912168 0.7101877745303738
3.252286999268055 19.000223220180647 -3.1361572424227586 4.965217073649694 6.306881492681812 -25.62873519414248 -3.1419981822620215 14.234231103624024
-9.888610650002308 6.063233049909545 18.965226247473137 6.110513752426282 1.1312782540679474 -9.767200876069671 12.057241750314743 -6.978336722208179
-16.18252923766303 -3.2699498799102242 8.267824780135566 -13.199890889612975 4.893363137347529 -14.452710752210228 3.261368411963994 14.805306822253861
40.504979114120985 23.766290802670497 -14.296808735347769 -0.9107159080384691 1.6650704111434704 -15.428710572776426 -1.0767601056458012 15.437227001255104
-1.067830432078808 31.119586382746615 10.894571722109436 -6.174832268640463 3.5912070118249106 -8.50517550853808 24.440310197037086 33.361567604339804
00000000: 3a2f 1978 97cf 1640 c2b6 93c2 333c 0ac0
00000010: 3f7c 6e6b 6ae6 27c0 1de6 aaf5 b6d7 3240
00000020: 888e fa39 7817 2340 2576 80cb 8223 2fc0
00000030: 35f9 472f 9cb6 1640 d31a 3150 8480 2840
00000040: 7abc 0200 f6b2 01c0 35aa 4a19 8977 cd3f
00000050: a55a a76f 45e2 02c0 3d09 5358 084c 0d40
00000060: 5951 6be8 eea0 1e40 c092 3518 63ed 3340
00000070: 7ac5 7db1 4c72 dd3f 2d5e c1f0 1c1c 2cc0
00000080: 0ba4 4d64 47f7 f3bf 993d 48a2 2519 f33f
00000090: ca6b 673e d24c dbbf 3d85 8c8c 656c ee3f
000000a0: 5f3d dceb 6fdc 0240 551a 5de3 e537 2240
000000b0: 8494 280f cc6e 1e40 3310 34b6 dbb9 e63f
000000c0: 897f d80b af04 0a40 2d60 03a1 0e00 3340
000000d0: e98d ba9b d916 09c0 0d77 53dd 61dc 1340
000000e0: a243 5b24 3f3a 1940 a8af 28ca f4a0 39c0
000000f0: 3041 67f1 cf22 09c0 d78a a323 ed77 2c40
00000100: 4146 a1f9 f7c6 23c0 248d 252a c040 1840
00000110: 4f23 3e11 19f7 3240 6cb7 6184 2a71 1840
00000120: 715d fe39 b719 f23f 135d a08d ce88 23c0
00000130: 9f22 6bca 4e1d 2840 9b70 091a d1e9 1bc0
00000140: 9753 723c ba2e 30c0 3630 8e7b db28 0ac0
00000150: 367b 5f54 2089 2040 e94f 4319 5866 2ac0
00000160: 3970 49c9 cd92 1340 bb94 26b4 c9e7 2cc0
00000170: 13be 6c52 4817 0a40 eca6 012d 519c 2d40
00000180: 0628 d627 a340 4440 04b2 50a2 2bc4 3740
00000190: b9f8 8650 f797 2cc0 011c 1fb0 9524 edbf
000001a0: 2c60 16df 20a4 fa3f 610c c3f3 7fdb 2ec0
000001b0: f62d f6cd 683a f1bf 3da3 ae37 dcdf 2e40
000001c0: 833b f75c d515 f1bf 93f1 9236 9d1e 3f40
000001d0: dac5 044e 05ca 2540 9662 f03a 07b3 18c0
000001e0: 8aa1 e7bd caba 0c40 8cd2 3f5d a602 21c0
000001f0: 9e5e 482b b870 3840 5df7 e5d8 47ae 4040

conv2d_nf_nf2.weights_dict_-1 f4 [4, 8, 16]
0.018088406 0.013808017 0.034133416 -0.024123775 -0.020712001 -0.009639881 0.01603348 -0.040680252
0.041542333 -0.024350645 -0.00020763057 -0.036263045 -0.01554852 -0.0020907763 0.04123852 1.1848534e-05
0.0051383898 -0.019174963 0.0029209796 -0.015102756 0.047692116 -0.010598263 0.0045529976 0.015596123
0.053415537 0.020340422 -0.007776212 -0.017167212 0.008212072 -0.007907609 0.035145085 0.0075772107
0.0138802845 -0.05807487 -0.004574812 0.03404532 0.01892488 0.03438789 -0.0034577032 -0.0015791625
-0.017757906 0.031385817 0.036862355 -0.02762024 0.025734603 -0.034508206 0.025189534 -0.0069168913
0.016594185 0.017266277 -0.010967094 0.004877523 0.0015910413 0.028630001 -0.0013462754 0.0016949896
-0.03779391 0.018994845 0.024162885 0.008183231 0.0023046813 0.0108618485 0.022490142 -0.017887225
0.015196747 0.012663268 -0.019305645 -0.00013640836 0.0015111875 0.027779436 0.007963936 -0.007940932
-0.015458516 0.0039799786 0.0054100733 -0.020216623 -0.041382942 -0.023307057 0.02309091 -0.006750803
-0.015514222 0.009972225 -0.009913343 0.017486224 -0.007543508 -0.02694412 -0.03809815 -0.03029178
0.02354351 -0.01012997 -0.030932907 -0.009194459 0.011941995 0.011061301 0.043718677 0.08034655
0.05924773 0.0057313885 0.023127435 -0.007087177 0.015103007 0.032871537 0.03660294 0.02511384
-0.04378132 0.046632048 0.029351959 -0.0150143225 0.0014594173 0.0059946445 0.014719066 0.0044208798
-0.005625193 -0.026949598 -0.0038832796 -0.0028945724 -0.013659358 -0.024389928 -0.011194194 -0.028892992
-0.033991184 0.004846282 -0.019066982 0.0091956835 0.034188345 0.018250354 -0.005025166 0.011927741
-0.0094514135 0.027129142 -0.027140437 -0.018405756 -0.01660555 0.0028838026 -0.0012857133 -0.008359854
-0.004284226 -0.009315009 -0.030814802 0.057074424 -0.018974982 0.0052966843 -0.010826266 0.033866677
-0.034493756 0.054160763 -0.03845287 0.004664376 0.0019254184 -0.017841663 0.010455686 -0.036260094
-0.020338846 0.011980571 0.029812599 0.026078675 -0.0071994225 -0.04294302 -0.014354561 0.0007637902
-0.021176485 0.003224564 0.029724672 -0.031995315 0.025568783 -0.046403885 -0.016992636 0.017701453
-0.053914994 -0.013024549 0.006814086 0.014351562 -0.016085938 -0.01512672 0.008844819 0.03878984
0.025932923 0.069334984 0.03511138 -0.016678063 -0.018435165 0.0013712033 -0.026441652 0.031308074
-0.019094681 0.007149644 -0.0063704397 0.053480454 0.00812256 0.013995622 0.006825227 0.021203227
0.031893227 0.03333946 0.063221514 0.010503824 0.014725837 0.0115769 -0.017974623 -0.021622328
0.033012964 -0.0041128914 -0.0065317727 0.014143628 -0.0038855807 0.027611164 0.002108205 -0.0027670974
0.0046793856 -0.02126467 -0.0025797025 0.019980868 0.01013637 0.036241263 -0.018962255 0.008744765
-0.0166981 0.0018146856 -0.01791243 0.01462238 0.026064876 -0.012902215 0.025627008 0.00794815
0.03546792 -0.031893518 0.015396182 -0.017735725 -0.0058660298 -0.01054037 0.039682638 -0.046420317
0.023710031 -0.018253958 0.035189796 -0.025500452 -0.014056812 0.034904566 -0.00013610067 0.014561415
-0.015488821 -0.0039620684 -0.01901344 -0.0038719752 0.02252031 0.0016216532 -0.007351736 0.007998346
0.0098540755 0.03858275 -0.04548508 -9.94169e-05 0.009212758 -8.959624e-06 -0.0074533387 0.021185026
00000000: 232e 943c 053b 623c 7bcf 0b3d 399f c5bc
00000010: 37ac a9bc 97f0 1dbc a558 833c 56a0 26bd
00000020: 4b28 2a3d 017b c7bc 68b7 59b9 8f88 14bd
00000030: 38bf 7ebc 6805 09bb b9e9 283d 11c9 4637
00000040: f05f a83b d014 9dbc e86d 3f3b 8d71 77bc
00000050: cf58 433d 56a4 2dbc 5031 953b e286 7f3c
00000060: 40ca 5a3d f5a0 a63c 98cf febb 41a2 8cbc
00000070: ed8b 063c eb8e 01bc 4bf4 0f3d 404a f83b
00000080: 226a 633c eadf 6dbd 4ee8 95bb 1b73 0b3d
00000090: 5a08 9b3c 51da 0c3d a29a 62bb e7fb ceba
000000a0: 0779 91bc 6a8e 003d fbfc 163d d743 e2bc
000000b0: 60d1 d23c 7a58 0dbd 485a ce3c 17a7 e2bb
000000c0: 87f0 873c 0272 8d3c 54af 33bc a1d3 9f3b
000000d0: 7d8a d03a 7789 ea3c 8275 b0ba 6a2a de3a
000000e0: c9cd 1abd 149b 9b3c 3ef1 c53c f512 063c
000000f0: 230a 173b e5f5 313c 3f3d b83c 3b88 92bc
00000100: c7fb 783c 9879 4f3c df26 9ebc d708 0fb9
00000110: 0a13 c63a b391 e33c 2b7b 023c af1a 02bc
00000120: b745 7dbc 7b6a 823b fc46 b13b 559d a5bc
00000130: 2981 29bd 71ee bebc 2629 bd3c d735 ddbb
00000140: 5d2f 7ebc 8b62 233c 936b 22bc 453f 8f3c
00000150: 882f f7bb eab9 dcbc ce0c 1cbd 7826 f8bc
00000160: 52de c03c 2cf8 25bc 0267 fdbc 5ba4 16bc
00000170: 5ba8 433c 763a 353c 5b12 333d bb8c a43d
00000180: bfad 723d 5fce bb3b bf75 bd3c 8d3b e8bb
00000190: 9a72 773c 4ea4 063d f7ec 153d 8abb cd3c
000001a0: 0b54 33bd 3f01 3f3d 8573 f03c a2fe 75bc
000001b0: eb49 bf3a b96e c43b 3d28 713c 07dd 903b
000001c0: 8a53 b8bb 67c5 dcbc 9f7e 7ebb deb2 3dbb
000001d0: 80cb 5fbc 63cd c7bc da67 37bc ffb0 ecbc
000001e0: 573a 0bbd 8fcd 9e3b 5c32 9cbc 7ea9 163c
000001f0: 1409 0c3d c481 953c 26aa a4bb 926c 433c
00000200: 1ada 1abc ef3d de3c 9f55 debc abc7 96bc
00000210: 5d08 88bc 2efe 3c3b 6185 a8ba c5f7 08bc
00000220: b162 8cbb fb9d 18bc 536f fcbc dfc6 693d
00000230: 6c71 9bbc cf8f ad3b a760 31bc c9b7 0a3d
00000240: 5349 0dbd add7 5d3d c280 1dbd 9fd7 983b
00000250: 525e fc3a ae28 92bc 534e 2b3c 7785 14bd
00000260: a79d a6bc 284a 443c 8d39 f43c f2a2 d53c
00000270: 22e9 ebbb 05e5 2fbd 652f 6bbc 1839 483a
00000280: 4f7a adbc 3553 533b 2881 f33c 850d 03bd
00000290: a075 d13c 0012 3ebd 2434 8bbc a302 913c
000002a0: f8d5 5cbd eb64 55bc b248 df3b d022 6b3c
000002b0: a8c6 83bc 10d6 77bc dce9 103c 18e2 1e3d
000002c0: 4871 d43c 80ff 8d3d f3d0 0f3d 6fa0 88bc
000002d0: 5805 97bc f3b9 b33a 2a9c d8bc e53c 003d
000002e0: 736c 9cbc 9047 ea3b 1fbf d0bb 520e 5b3d
000002f0: 7c14 053c e54d 653c 27a6 df3b 64b2 ad3c
00000300: 79a2 023d f58e 083d 487a 813d 3b18 2c3c
00000310: a344 713c 0aad 3d3c 843f 93bc 4f21 b1bc
00000320: 9a38 073d 6fc5 86bb 7b08 d6bb adba 673c
00000330: 3aa5 7ebb cf30 e23c d029 0a3b 3158 35bb
00000340: 8855 993b 3f33 aebc 3a10 29bb ebae a33c
00000350: 0413 263c b871 143d bb56 9bbc 3446 0f3c
00000360: 74ca 88bc bfda ed3a 17bd 92bc b592 6f3c
00000370: 0286 d53c d063 53bc bbef d13c f538 023c
00000380: cf46 113d c7a2 02bd 4540 7c3c 834a 91bc
00000390: d337 c0bb 84b1 2cbc 438a 223d 3b23 3ebd
000003a0: 8a3b c23c 5389 95bc 2d23 103d 53e6 d0bc
000003b0: 8b4e 66bc 17f8 0e3d 3fb6 0eb9 0093 6e3c
000003c0: d3c4 7dbc 3dd4 81bb 13c2 9bbc f7c0 7dbb
000003d0: 837c b83c a78d d43a d5e6 f0bb 7f0b 033c
000003e0: fd72 213c f208 1e3d 904e 3abd 0b7e d0b8
000003f0: 1cf1 163c 4b51 16b7 233b f4bb 388c ad3c

conv2d_nf_nf2.weights_dict_0 f4 [4, 8, 16]
0.40423426 -2.2259548 -3.584082 0.9476632 -3.3885043 0.69672614 2.3640072 7.1316104
-15.167008 -10.899711 -47.27863 6.794047 -35.264633 34.819706 -56.61516 -1.109648
11.248459 -0.080204085 70.38609 -18.967527 1.9568932 1.4700356 -3.2857704 4.75271
2.2452765 -15.025171 -2.402087 2.338518 85.22225 3.4041598 -3.9654546 -0.48655
-1.8416444 21.294764 -0.7302841 -0.5881863 1.0280871 -77.63339 -34.17176 -4.787495
5.2727985 1.8718213 -0.515745 9.700371 24.421686 -14.892242 13.078491 -0.6538981
-0.94776034 -3.3386211 -41.87638 7.0615106 25.900146 99.78496 -0.6317879 -1.1338258
3.2507665 5.51373 -8.612855 -15.504295 -0.4887229 45.51773 1.3614336 0.24445175
0.70353776 13.180166 0.32521212 2.7181387 0.13185899 -14.618001 4.5706797 39.356174
2.274783 -3.6844013 16.443462 -1.2561389 -42.721474 136.1273 47.749706 4.8309107
1.037935 4.145962 4.4606314 -4.6807227 -35.127136 -106.830765 -7.7462416 1.7676647
6.1292534 1.3431947 0.60066354 6.295299 -25.542782 1.5032673 4.174261 7.152329
-37.718323 -58.434246 0.9793993 4.3663244 2.31659 -1.3370515 11.727428 2.8905663
1.4083986 6.607042 -0.24160278 -55.061893 1.8797896 19.701786 -0.6120031 -0.13841477
13.999976 1.173709 -16.510176 6.6917057 12.160956 -1.5361936 3.221163 26.527117
4.105047 -4.531551 1.4658756 0.7933602 -63.81281 79.25313 -0.23714517 -11.737961
-2.534528 -2.8761928 -2.641877 -1.7652551 0.8047534 1.5006537 0.26126632 2.3047764
-9.287911 -3.6331975 -18.314465 2.997222 -19.591913 5.2006364 -19.444221 0.8506615
18.273935 -0.19057064 81.47056 32.28875 0.8133611 8.057164 -2.811627 -14.97728
-3.4812033 2.3483002 0.041125704 -34.91284 49.71593 3.262172 -5.131622 0.7011591
9.056927 20.599575 -0.017229015 -1.1561563 0.6798109 -56.845478 12.590267 6.9303236
4.4556537 0.83137023 0.4255184 -3.2527747 39.865772 -2.4415047 5.3767877 0.04934875
1.2180644 15.147267 -0.13921893 -9.201037 33.567436 58.12062 3.5536914 -6.373182
-6.2758203 -8.395242 -0.25585634 21.364294 1.4062146 5.938385 5.01273 7.297799
2.92282 11.551941 1.9960892 -3.9374762 0.10286711 18.889595 -1.9946316 35.12028
6.4907074 4.307672 3.874986 4.267364 -21.385624 120.90816 30.099102 14.116458
-3.9725075 19.270304 5.297136 8.132681 -15.111721 -109.99838 -2.1672907 -0.21596779
-2.497986 -1.8877083 -1.9500358 -22.616297 -0.22655201 2.5823166 10.496412 -12.2983055
46.45243 -35.72594 -1.7626796 -5.839998 -0.75265896 4.638982 -28.019922 -5.025071
1.1890061 6.240819 0.62336516 -103.7705 -2.612423 -0.7139916 1.035465 2.2837172
-9.504555 -0.29545903 -4.2641397 -0.8092041 -2.163605 -0.36399612 -0.55894876 -4.3591566
-0.5982349 -0.8836827 1.1757038 -0.28737503 -29.171783 80.495865 -2.4315526 6.4591336
00000000: cbf7 ce3e 0b76 0ec0 9961 65c0 0e9a 723f
00000010: 41dd 58c0 a55c 323f e54b 1740 2736 e440
00000020: 11ac 72c1 3765 2ec1 511d 3dc2 d568 d940
00000030: fc0e 0dc2 6147 0b42 ed75 62c2 f208 8ebf
00000040: b0f9 3341 0a42 a4bd aec5 8c42 7fbd 97c1
00000050: 7a7b fa3f 202a bc3f 104a 52c0 3316 9840
00000060: 9cb2 0f40 1a67 70c1 cbbb 19c0 47aa 1540
00000070: cb71 aa42 c1dd 5940 02ca 7dc0 151d f9be
00000080: 01bb ebbf ad5b aa41 e6f3 3abf 6193 16bf
00000090: 5c98 833f 4c44 9bc2 e2af 08c2 2933 99c0
000000a0: c4ba a840 d797 ef3f dd07 04bf b834 1b41
000000b0: 9d5f c341 a046 6ec1 8041 5141 de65 27bf
000000c0: 6ca0 72bf f8ab 55c0 6a81 27c2 e5f7 e140
000000d0: 8033 cf41 e691 c742 dabc 21bf 3421 91bf
000000e0: 8f0c 5040 7a70 b040 41ce 09c1 9811 78c1
000000f0: e339 fabe 2812 3642 7543 ae3f 8f51 7a3e
00000100: 0d1b 343f f6e1 5241 3482 a63e fcf5 2d40
00000110: 0b06 073e 55e3 69c1 0243 9240 b96c 1d42
00000120: 0b96 1140 3bcd 6bc0 368c 8341 29c9 a0bf
00000130: cae2 2ac2 9720 0843 b3ff 3e42 d296 9a40
00000140: 0edb 843f b9ab 8440 7ebd 8e40 7bc8 95c0
00000150: 3082 0cc2 5aa9 d5c2 36e1 f7c0 d642 e23f
00000160: d822 c440 ceed ab3f 16c5 193f 1773 c940
00000170: 9e57 ccc1 106b c03f 8c93 8540 e1df e440
00000180: 90df 16c2 abbc 69c2 eab9 7a3f eeb8 8b40
00000190: 0343 1440 8124 abbf 8ca3 3b41 0aff 3840
000001a0: 6846 b43f e36c d340 b866 77be 613f 5cc2
000001b0: f29c f03f 429d 9d41 3cac 1cbf 9abc 0dbe
000001c0: e7ff 5f41 193c 963f d714 84c1 7422 d640
000001d0: 4793 4241 fea1 c4bf 8927 4e40 8937 d441
000001e0: 8c5c 8340 7702 91c0 d0a1 bb3f a719 4b3f
000001f0: 5140 7fc2 9a81 9e42 2fd6 72be b0ce 3bc1
00000200: b535 22c0 8b13 38c0 8314 29c0 e1f3 e1bf
00000210: 5204 4e3f 6c15 c03f b3c4 853e 7581 1340
00000220: 499b 14c1 4f86 68c0 0684 92c1 7cd2 3f40
00000230: 3dbc 9cc1 9d6b a640 c48d 9bc1 f4c4 593f
00000240: 0531 9241 f324 43be edf0 a242 ae27 0142
00000250: 6f38 503f 25ea 0041 b2f1 33c0 f0a2 6fc1
00000260: 09cc 5ec0 8d4a 1640 6d73 283d c0a6 0bc2
00000270: 1ddd 4642 6dc7 5040 3f36 a4c0 2a7f 333f
00000280: 2ce9 1041 eecb a441 dd23 8dbc eefc 93bf
00000290: 1608 2e3f c561 63c2 bc71 4941 36c5 dd40
000002a0: b794 8e40 aed4 543f 8cdd d93e 762d 50c0
000002b0: 8d76 1f42 9d41 1cc0 a50e ac40 ea21 4a3d
000002c0: 89e9 9b3f 355b 7241 688f 0ebe 7337 13c1
000002d0: 0e45 0642 847b 6842 ae6f 6340 1bf1 cbc0
000002e0: 85d3 c8c0 e952 06c1 9aff 82be 13ea aa41
000002f0: d7fe b33f 4007 be40 4968 a040 9287 e940
00000300: 7c0f 3b40 c0d4 3841 da7f ff3f 9cff 7bc0
00000310: feab d23d e41d 9741 1750 ffbf 2b7b 0c42
00000320: e0b3 cf40 73d8 8940 c5ff 7740 3f8e 8840
00000330: c215 abc1 fad0 f142 f6ca f041 03dd 6141
00000340: 903d 7ec0 9529 9a41 2382 a940 761f 0241
00000350: 9cc9 71c1 2cff dbc2 e4b4 0ac0 a926 5dbe
00000360: 01df 1fc0 6da0 f1bf c69a f9bf 2dee b4c1
00000370: 40fd 67be ad44 2540 4ef1 2741 dcc5 44c1
00000380: 4acf 3942 5de7 0ec2 7c9f e1bf 43e1 bac0
00000390: 42ae 40bf 8a72 9440 cd28 e0c1 62cd a0c0
000003a0: 5a31 983f cab4 c740 dc94 1f3f 7f8a cfc2
000003b0: f031 27c0 27c8 36bf 1e8a 843f 6c28 1240
000003c0: a812 18c1 6846 97be d573 88c0 0028 4fbf
000003d0: 8178 0ac0 b35d babe 4417 0fbf 367e 8bc0
000003e0: ec25 19bf 0839 62bf 767d 963f d222 93be
000003f0: d05f e9c1 e2fd a042 8f9e 1bc0 39b1 ce40

conv2d_nf_nf2.weights_dict_1 f4 [4, 8, 16]
21.546284 3.6255455 -18.031796 8.535428 14.820125 -1.6788795 -55.02304 2.79792
-7.257487 27.866858 38.252705 -1.3777235 -0.8174143 -6.0116005 -6.8909125 -11.981871
53.942623 -56.546413 -1.4142812 -0.33218417 141.01146 7.4984407 1.1802822 -0.101343125
20.181196 1.4708105 5.3598666 3.3546638 2.1279593 -3.6087153 13.296172 -32.03605
37.64083 1.4955171 -3.2578025 -6.538789 2.4857178 16.312803 -0.33761555 -113.30768
-1.4895048 14.904005 4.6434717 -0.02082351 0.9667808 -9.601128 -7.1108265 -3.0661285
-5.5497627 -14.313919 -5.9474998 1.1687471 -2.7010598 -13.900153 -3.3510044 4.053028
1.6795508 21.099003 -5.116326 0.49755403 6.8596134 6.1814346 -6.899772 -6.2944674
0.33548105 0.5305702 2.1293728 -5.258253 -43.116615 4.311258 44.571392 -3.6595736
-7.7315874 -26.693958 10.724036 -3.1504874 -3.8843737 -1.7015383 -0.54276705 153.94234
3.2514572 8.004097 -14.063887 -18.20878 -46.53845 -6.320363 -2.8572066 29.832064
15.189287 33.466053 -7.318085 2.138358 -0.48300764 -9.945907 0.585767 1.2571788
11.225067 2.9512043 -6.546551 -10.327083 13.3705635 -5.715106 4.4604244 2.9135761
26.328701 63.349392 -12.762495 -8.1639185 -48.04923 -0.8142726 -7.800381 -2.7672453
23.890724 -31.684618 -6.504112 -5.1717796 0.6787523 -18.117092 18.507803 70.36309
-0.8737427 -117.36919 -2.1519034 -0.9659072 5.503427 9.123316 1.6881644 1.1947557
8.514997 -21.105507 -5.766758 -9.964435 10.705614 -2.0245132 -45.093426 -2.7806067
-1.1457132 35.856884 72.62708 -2.4782767 0.3150362 4.979663 9.374238 18.977112
104.78185 -0.6841824 -4.664642 -1.2785543 41.64153 -8.609915 4.26498 1.6371514
-16.093771 0.9106818 -13.213253 -8.489677 -0.12614384 2.9323719 -18.935543 1.6067487
7.6193604 1.148766 6.298877 9.809989 -2.1406577 -4.6775255 0.16020595 10.844936
4.150095 -6.3855357 -0.5127751 2.0894153 0.008388583 -0.36143175 -6.9033456 10.577984
-3.782486 4.029755 5.707707 -4.2812004 6.2925353 6.02609 8.841725 -10.220291
-3.774928 66.77405 4.73249 1.4063599 -5.485552 -16.73973 5.0103874 11.891095
-0.052777816 -1.2111602 -5.0255322 -3.1704662 -20.09643 -7.0055146 22.278759 2.7822313
10.132473 21.26621 10.665174 3.1288617 3.2541516 -0.93662345 2.7107885 99.27687
2.7533295 -0.8079967 4.862791 1.1242931 -13.521101 -1.2041444 3.1833982 -1.8624364
3.5575802 -7.720754 -2.323579 -1.941771 -1.0878823 2.5134242 -3.7670727 11.582427
-9.148239 -3.6827111 1.1604925 10.824684 74.83577 4.178352 1.6094655 4.5893025
-1.4018768 -31.07323 4.005823 8.266783 -7.5606694 -2.1840374 10.003528 6.5337214
1.0860182 1.7369272 -0.7290356 10.990715 -0.6415203 11.695998 -2.2096183 -20.956537
5.0125027 -27.81052 -1.5920054 2.4612339 -3.187933 -6.42666 -8.355815 -6.3583055
00000000: ca5e ac41 f008 6840 1e41 90c1 1d91 0841
00000010: 3b1f 6d41 86e5 d6bf 9817 5cc2 1f11 3340
00000020: 553d e8c0 53ef de41 c502 1942 3e59 b0bf
00000030: 1042 51bf 085f c0c0 5b82 dcc0 beb5 3fc1
00000040: 3fc5 5742 872f 62c2 2b07 b5bf 0b14 aabe
00000050: ef02 0d43 3af3 ef40 7d13 973f fc8c cfbd
00000060: 1773 a141 8543 bc3f 0784 ab40 d0b2 5640
00000070: 7c30 0840 31f5 66c0 1fbd 5441 ea24 00c2
00000080: 3690 1642 1b6d bf3f d67f 50c0 c23d d1c0
00000090: 0016 1f40 9f80 8241 f2db acbe 889d e2c2
000000a0: 18a8 bebf ce76 6e41 5297 9440 1196 aabc
000000b0: f27e 773f 389e 19c1 e48b e3c0 733b 44c0
000000c0: a897 b1c0 d005 65c1 eb51 bec0 8199 953f
000000d0: 2ade 2cc0 0767 5ec1 db76 56c0 68b2 8140
000000e0: 85fb d63f c2ca a841 f1b8 a3c0 67bf fe3e
000000f0: f481 db40 50ce c540 efca dcc0 476c c9c0
00000100: 2cc4 ab3e 73d3 073f a547 0840 9c43 a8c0
00000110: 6a77 2cc2 d3f5 8940 1b49 3242 7436 6ac0
00000120: 2a69 f7c0 3a8d d5c1 a795 2b41 96a1 49c0
00000130: 9499 78c0 02cc d9bf c8f2 0abf 3df1 1943
00000140: e017 5040 c810 0041 ae05 61c1 95ab 91c1
00000150: 5f27 3ac2 6a40 cac0 79dc 36c0 11a8 ee41
00000160: 5207 7341 3ddd 0542 c12d eac0 dcda 0840
00000170: c74c f7be 6f22 1fc1 d3f4 153f 3ceb a03f
00000180: e099 3341 88e0 3c40 597d d1c0 bb3b 25c1
00000190: d4ed 5541 26e2 b6c0 ccbb 8e40 0878 3a40
000001a0: 2ea1 d241 c765 7d42 2e33 4cc1 699f 02c1
000001b0: 6932 40c2 2b74 50bf b99c f9c0 8c1a 31c0
000001c0: 3420 bf41 197a fdc1 af21 d0c0 387f a5c0
000001d0: b6c2 2d3f ceef 90c1 fb0f 9441 e7b9 8c42
000001e0: 9aad 5fbf 06bd eac2 c9b8 09c0 b245 77bf
000001f0: 131c b040 1af9 1141 c515 d83f c1ed 983f
00000200: 6d3d 0841 14d8 a8c1 4889 b8c0 536e 1fc1
00000210: 324a 2b41 a091 01c0 ab5f 34c2 76f5 31c0
00000220: bba6 92bf 736d 0f42 1141 9142 169c 1ec0
00000230: 6d4c a13e 6659 9f40 e1fc 1541 20d1 9741
00000240: 4f90 d142 9426 2fbf bf44 95c0 aba7 a3bf
00000250: ed90 2642 36c2 09c1 b77a 8840 2d8e d13f
00000260: 0bc0 80c1 7122 693f 7c69 53c1 b8d5 07c1
00000270: da2b 01be fbab 3b40 fe7b 97c1 f1a9 cd3f
00000280: cdd1 f340 c40a 933f 6690 c940 b7f5 1c41
00000290: 8900 09c0 4aae 95c0 070d 243e dc84 2d41
000002a0: 94cd 8440 4f56 ccc0 3b45 03bf fbb8 0540
000002b0: 4470 093c 950d b9be 35e8 dcc0 6c3f 2941
000002c0: 4014 72c0 c1f3 8040 89a5 b640 98ff 88c0
000002d0: 735c c940 bbd5 c040 b577 0d41 5086 23c1
000002e0: 6c98 71c0 508c 8542 8f70 9740 9a03 b43f
000002f0: a489 afc0 f8ea 85c1 1855 a040 ed41 3e41
00000300: 8d2d 58bd 4c07 9bbf 29d1 a0c0 ebe8 4ac0
00000310: 7dc5 a0c1 2d2d e0c0 e63a b241 1410 3240
00000320: 9c1e 2241 3321 aa41 8da4 2a41 453f 4840
00000330: 0544 5040 8ec6 6fbf 8f7d 2d40 c28d c642
00000340: 8d36 3040 dfd8 4ebf fc9b 9b40 d6e8 8f3f
00000350: 6e56 58c1 6721 9abf ccbc 4b40 5164 eebf
00000360: 65af 6340 6b10 f7c0 85b5 14c0 f48b f8bf
00000370: ba3f 8bbf f1db 2040 b817 71c0 9f51 3941
00000380: 305f 12c1 8ab1 6bc0 058b 943f e831 2d41
00000390: eaab 9542 0fb5 8540 f702 ce3f 91db 9240
000003a0: b370 b3bf fa95 f8c1 b42f 8040 be44 0441
000003b0: 01f1 f1c0 45c7 0bc0 730e 2041 3f14 d140
000003c0: a502 8b3f a153 de3f 14a2 3abf f8d9 2f41
000003d0: ad3a 24bf cf22 3b41 636a 0dc0 fda6 a7c1
000003e0: 6c66 a040 f27b dec1 d5c6 cbbf db84 1d40
000003f0: 1807 4cc0 33a7 cdc0 6bb1 05c1 3d77 cbc0
